name: "irv2"

layer {
  name: "data"
  type: "ImageData"
  top: "data"
  top: "label"
  image_data_param {
    source: "/furniture/data/train.txt"
    root_folder: "/furniture/data/"
    batch_size: 80
    new_height: 299
    new_width: 299
    shuffle: true
  }
  transform_param {
    mirror: true
    mean_value: 103.939
    mean_value: 116.779
    mean_value: 123.68
  }
  include {
      phase: TRAIN
  }
}

layer {
  name: "data"
  type: "ImageData"
  top: "data"
  top: "label"
  image_data_param {
    source: "/furniture/data/valid.txt"
    root_folder: "/furniture/data/val/"
    shuffle: true
    batch_size: 80
    new_height: 299
    new_width: 299
  }
  transform_param {
    mirror: false
    mean_value: 103.939
    mean_value: 116.779
    mean_value: 123.68
    }
  include {
    phase: TEST
  }
}

layer{
   name: "gather"
   type: "Gather"
   bottom: "label"
   top: "label_g"
}


layer {
  name: "stem_base/Conv2d_1a_3x3"
  type: "ConvolutionData"
  bottom: "data"
  top: "stem_base/Conv2d_1a_3x3"
  param {
    lr_mult: 1
    decay_mult: 1
  }
  convolution_param {
    num_output: 32
    bias_term: false
    kernel_size: 3
    stride: 2
    weight_filler {
      type: "msra"
    }
  }
}
layer {
  name: "stem_base/Conv2d_1a_3x3/bn"
  type: "BNData"
  bottom: "stem_base/Conv2d_1a_3x3"
  top: "stem_base/Conv2d_1a_3x3/bn"
  param {
    lr_mult: 1
    decay_mult: 0
  }
  param {
    lr_mult: 1
    decay_mult: 0
  }
  param {
    lr_mult: 0
    decay_mult: 0
  }
  param {
    lr_mult: 0
    decay_mult: 0
  }
  bn_param {
    scale_filler {
      type: "constant"
      value: 1
    }
    shift_filler {
      type: "constant"
      value: 0
    }
    decay: 0.05
    moving_average: true
  }
}
layer {
  name: "stem_base/Conv2d_1a_3x3/bn/relu"
  type: "ReLU"
  bottom: "stem_base/Conv2d_1a_3x3/bn"
  top: "stem_base/Conv2d_1a_3x3/bn"
}
layer {
  name: "stem_base/Conv2d_2a_3x3"
  type: "ConvolutionData"
  bottom: "stem_base/Conv2d_1a_3x3/bn"
  top: "stem_base/Conv2d_2a_3x3"
  param {
    lr_mult: 1
    decay_mult: 1
  }
  convolution_param {
    num_output: 32
    bias_term: false
    kernel_size: 3
    stride: 1
    weight_filler {
      type: "msra"
    }
  }
}
layer {
  name: "stem_base/Conv2d_2a_3x3/bn"
  type: "BNData"
  bottom: "stem_base/Conv2d_2a_3x3"
  top: "stem_base/Conv2d_2a_3x3/bn"
  param {
    lr_mult: 1
    decay_mult: 0
  }
  param {
    lr_mult: 1
    decay_mult: 0
  }
  param {
    lr_mult: 0
    decay_mult: 0
  }
  param {
    lr_mult: 0
    decay_mult: 0
  }
  bn_param {
    scale_filler {
      type: "constant"
      value: 1
    }
    shift_filler {
      type: "constant"
      value: 0
    }
    decay: 0.05
    moving_average: true
  }
}
layer {
  name: "stem_base/Conv2d_2a_3x3/bn/relu"
  type: "ReLU"
  bottom: "stem_base/Conv2d_2a_3x3/bn"
  top: "stem_base/Conv2d_2a_3x3/bn"
}
layer {
  name: "stem_base/Conv2d_2b_3x3"
  type: "ConvolutionData"
  bottom: "stem_base/Conv2d_2a_3x3/bn"
  top: "stem_base/Conv2d_2b_3x3"
  param {
    lr_mult: 1
    decay_mult: 1
  }
  convolution_param {
    num_output: 64
    bias_term: false
    pad: 1
    kernel_size: 3
    stride: 1
    weight_filler {
      type: "msra"
    }
  }
}
layer {
  name: "stem_base/Conv2d_2b_3x3/bn"
  type: "BNData"
  bottom: "stem_base/Conv2d_2b_3x3"
  top: "stem_base/Conv2d_2b_3x3/bn"
  param {
    lr_mult: 1
    decay_mult: 0
  }
  param {
    lr_mult: 1
    decay_mult: 0
  }
  param {
    lr_mult: 0
    decay_mult: 0
  }
  param {
    lr_mult: 0
    decay_mult: 0
  }
  bn_param {
    scale_filler {
      type: "constant"
      value: 1
    }
    shift_filler {
      type: "constant"
      value: 0
    }
    decay: 0.05
    moving_average: true
  }
}
layer {
  name: "stem_base/Conv2d_2b_3x3/bn/relu"
  type: "ReLU"
  bottom: "stem_base/Conv2d_2b_3x3/bn"
  top: "stem_base/Conv2d_2b_3x3/bn"
}
layer {
  name: "stem_base/MaxPool_3a_3x3"
  type: "Pooling"
  bottom: "stem_base/Conv2d_2b_3x3/bn"
  top: "stem_base/MaxPool_3a_3x3"
  pooling_param {
    pool: MAX
    kernel_size: 3
    stride: 2
  }
}
layer {
  name: "stem_base/Conv2d_3b_1x1"
  type: "ConvolutionData"
  bottom: "stem_base/MaxPool_3a_3x3"
  top: "stem_base/Conv2d_3b_1x1"
  param {
    lr_mult: 1
    decay_mult: 1
  }
  convolution_param {
    num_output: 80
    bias_term: false
    pad: 0
    kernel_size: 1
    stride: 1
    weight_filler {
      type: "msra"
    }
  }
}
layer {
  name: "stem_base/Conv2d_3b_1x1/bn"
  type: "BNData"
  bottom: "stem_base/Conv2d_3b_1x1"
  top: "stem_base/Conv2d_3b_1x1/bn"
  param {
    lr_mult: 1
    decay_mult: 0
  }
  param {
    lr_mult: 1
    decay_mult: 0
  }
  param {
    lr_mult: 0
    decay_mult: 0
  }
  param {
    lr_mult: 0
    decay_mult: 0
  }
  bn_param {
    scale_filler {
      type: "constant"
      value: 1
    }
    shift_filler {
      type: "constant"
      value: 0
    }
    decay: 0.05
    moving_average: true
  }
}
layer {
  name: "stem_base/Conv2d_3b_1x1/bn/relu"
  type: "ReLU"
  bottom: "stem_base/Conv2d_3b_1x1/bn"
  top: "stem_base/Conv2d_3b_1x1/bn"
}
layer {
  name: "stem_base/Conv2d_4a_3x3"
  type: "ConvolutionData"
  bottom: "stem_base/Conv2d_3b_1x1/bn"
  top: "stem_base/Conv2d_4a_3x3"
  param {
    lr_mult: 1
    decay_mult: 1
  }
  convolution_param {
    num_output: 192
    bias_term: false
    kernel_size: 3
    stride: 1
    weight_filler {
      type: "msra"
    }
  }
}
layer {
  name: "stem_base/Conv2d_4a_3x3/bn"
  type: "BNData"
  bottom: "stem_base/Conv2d_4a_3x3"
  top: "stem_base/Conv2d_4a_3x3/bn"
  param {
    lr_mult: 1
    decay_mult: 0
  }
  param {
    lr_mult: 1
    decay_mult: 0
  }
  param {
    lr_mult: 0
    decay_mult: 0
  }
  param {
    lr_mult: 0
    decay_mult: 0
  }
  bn_param {
    scale_filler {
      type: "constant"
      value: 1
    }
    shift_filler {
      type: "constant"
      value: 0
    }
    decay: 0.05
    moving_average: true
  }
}
layer {
  name: "stem_base/Conv2d_4a_3x3/bn/relu"
  type: "ReLU"
  bottom: "stem_base/Conv2d_4a_3x3/bn"
  top: "stem_base/Conv2d_4a_3x3/bn"
}
layer {
  name: "stem_base/MaxPool_5a_3x3"
  type: "Pooling"
  bottom: "stem_base/Conv2d_4a_3x3/bn"
  top: "stem_base/MaxPool_5a_3x3"
  pooling_param {
    pool: MAX
    kernel_size: 3
    stride: 2
  }
}
layer {
  name: "stem_mixed/branch_0/Conv2d_1x1"
  type: "ConvolutionData"
  bottom: "stem_base/MaxPool_5a_3x3"
  top: "stem_mixed/branch_0/Conv2d_1x1"
  param {
    lr_mult: 1
    decay_mult: 1
  }
  convolution_param {
    num_output: 96
    bias_term: false
    pad: 0
    kernel_size: 1
    stride: 1
    weight_filler {
      type: "msra"
    }
  }
}
layer {
  name: "stem_mixed/branch_0/Conv2d_1x1/bn"
  type: "BNData"
  bottom: "stem_mixed/branch_0/Conv2d_1x1"
  top: "stem_mixed/branch_0/Conv2d_1x1/bn"
  param {
    lr_mult: 1
    decay_mult: 0
  }
  param {
    lr_mult: 1
    decay_mult: 0
  }
  param {
    lr_mult: 0
    decay_mult: 0
  }
  param {
    lr_mult: 0
    decay_mult: 0
  }
  bn_param {
    scale_filler {
      type: "constant"
      value: 1
    }
    shift_filler {
      type: "constant"
      value: 0
    }
    decay: 0.05
    moving_average: true
  }
}
layer {
  name: "stem_mixed/branch_0/Conv2d_1x1/bn/relu"
  type: "ReLU"
  bottom: "stem_mixed/branch_0/Conv2d_1x1/bn"
  top: "stem_mixed/branch_0/Conv2d_1x1/bn"
}
layer {
  name: "stem_mixed/branch_0/Conv2d_0a_1x1"
  type: "ConvolutionData"
  bottom: "stem_base/MaxPool_5a_3x3"
  top: "stem_mixed/branch_0/Conv2d_0a_1x1"
  param {
    lr_mult: 1
    decay_mult: 1
  }
  convolution_param {
    num_output: 48
    bias_term: false
    pad: 0
    kernel_size: 1
    stride: 1
    weight_filler {
      type: "msra"
    }
  }
}
layer {
  name: "stem_mixed/branch_0/Conv2d_0a_1x1/bn"
  type: "BNData"
  bottom: "stem_mixed/branch_0/Conv2d_0a_1x1"
  top: "stem_mixed/branch_0/Conv2d_0a_1x1/bn"
  param {
    lr_mult: 1
    decay_mult: 0
  }
  param {
    lr_mult: 1
    decay_mult: 0
  }
  param {
    lr_mult: 0
    decay_mult: 0
  }
  param {
    lr_mult: 0
    decay_mult: 0
  }
  bn_param {
    scale_filler {
      type: "constant"
      value: 1
    }
    shift_filler {
      type: "constant"
      value: 0
    }
    decay: 0.05
    moving_average: true
  }
}
layer {
  name: "stem_mixed/branch_0/Conv2d_0a_1x1/bn/relu"
  type: "ReLU"
  bottom: "stem_mixed/branch_0/Conv2d_0a_1x1/bn"
  top: "stem_mixed/branch_0/Conv2d_0a_1x1/bn"
}
layer {
  name: "stem_mixed/branch_1/Conv2d_0b_5x5"
  type: "ConvolutionData"
  bottom: "stem_mixed/branch_0/Conv2d_0a_1x1/bn"
  top: "stem_mixed/branch_1/Conv2d_0b_5x5"
  param {
    lr_mult: 1
    decay_mult: 1
  }
  convolution_param {
    num_output: 64
    bias_term: false
    pad: 2
    kernel_size: 5
    stride: 1
    weight_filler {
      type: "msra"
    }
  }
}
layer {
  name: "stem_mixed/branch_1/Conv2d_0b_5x5/bn"
  type: "BNData"
  bottom: "stem_mixed/branch_1/Conv2d_0b_5x5"
  top: "stem_mixed/branch_1/Conv2d_0b_5x5/bn"
  param {
    lr_mult: 1
    decay_mult: 0
  }
  param {
    lr_mult: 1
    decay_mult: 0
  }
  param {
    lr_mult: 0
    decay_mult: 0
  }
  param {
    lr_mult: 0
    decay_mult: 0
  }
  bn_param {
    scale_filler {
      type: "constant"
      value: 1
    }
    shift_filler {
      type: "constant"
      value: 0
    }
    decay: 0.05
    moving_average: true
  }
}
layer {
  name: "stem_mixed/branch_1/Conv2d_0b_5x5/bn/relu"
  type: "ReLU"
  bottom: "stem_mixed/branch_1/Conv2d_0b_5x5/bn"
  top: "stem_mixed/branch_1/Conv2d_0b_5x5/bn"
}
layer {
  name: "stem_mixed/branch_2/Conv2d_0a_1x1"
  type: "ConvolutionData"
  bottom: "stem_base/MaxPool_5a_3x3"
  top: "stem_mixed/branch_2/Conv2d_0a_1x1"
  param {
    lr_mult: 1
    decay_mult: 1
  }
  convolution_param {
    num_output: 64
    bias_term: false
    pad: 0
    kernel_size: 1
    stride: 1
    weight_filler {
      type: "msra"
    }
  }
}
layer {
  name: "stem_mixed/branch_2/Conv2d_0a_1x1/bn"
  type: "BNData"
  bottom: "stem_mixed/branch_2/Conv2d_0a_1x1"
  top: "stem_mixed/branch_2/Conv2d_0a_1x1/bn"
  param {
    lr_mult: 1
    decay_mult: 0
  }
  param {
    lr_mult: 1
    decay_mult: 0
  }
  param {
    lr_mult: 0
    decay_mult: 0
  }
  param {
    lr_mult: 0
    decay_mult: 0
  }
  bn_param {
    scale_filler {
      type: "constant"
      value: 1
    }
    shift_filler {
      type: "constant"
      value: 0
    }
    decay: 0.05
    moving_average: true
  }
}
layer {
  name: "stem_mixed/branch_2/Conv2d_0a_1x1/bn/relu"
  type: "ReLU"
  bottom: "stem_mixed/branch_2/Conv2d_0a_1x1/bn"
  top: "stem_mixed/branch_2/Conv2d_0a_1x1/bn"
}
layer {
  name: "stem_mixed/branch_2/Conv2d_0b_3x3"
  type: "ConvolutionData"
  bottom: "stem_mixed/branch_2/Conv2d_0a_1x1/bn"
  top: "stem_mixed/branch_2/Conv2d_0b_3x3"
  param {
    lr_mult: 1
    decay_mult: 1
  }
  convolution_param {
    num_output: 96
    bias_term: false
    pad: 1
    kernel_size: 3
    stride: 1
    weight_filler {
      type: "msra"
    }
  }
}
layer {
  name: "stem_mixed/branch_2/Conv2d_0b_3x3/bn"
  type: "BNData"
  bottom: "stem_mixed/branch_2/Conv2d_0b_3x3"
  top: "stem_mixed/branch_2/Conv2d_0b_3x3/bn"
  param {
    lr_mult: 1
    decay_mult: 0
  }
  param {
    lr_mult: 1
    decay_mult: 0
  }
  param {
    lr_mult: 0
    decay_mult: 0
  }
  param {
    lr_mult: 0
    decay_mult: 0
  }
  bn_param {
    scale_filler {
      type: "constant"
      value: 1
    }
    shift_filler {
      type: "constant"
      value: 0
    }
    decay: 0.05
    moving_average: true
  }
}
layer {
  name: "stem_mixed/branch_2/Conv2d_0b_3x3/bn/relu"
  type: "ReLU"
  bottom: "stem_mixed/branch_2/Conv2d_0b_3x3/bn"
  top: "stem_mixed/branch_2/Conv2d_0b_3x3/bn"
}
layer {
  name: "stem_mixed/branch_2/Conv2d_0c_3x3"
  type: "ConvolutionData"
  bottom: "stem_mixed/branch_2/Conv2d_0b_3x3/bn"
  top: "stem_mixed/branch_2/Conv2d_0c_3x3"
  param {
    lr_mult: 1
    decay_mult: 1
  }
  convolution_param {
    num_output: 96
    bias_term: false
    pad: 1
    kernel_size: 3
    stride: 1
    weight_filler {
      type: "msra"
    }
  }
}
layer {
  name: "stem_mixed/branch_2/Conv2d_0c_3x3/bn"
  type: "BNData"
  bottom: "stem_mixed/branch_2/Conv2d_0c_3x3"
  top: "stem_mixed/branch_2/Conv2d_0c_3x3/bn"
  param {
    lr_mult: 1
    decay_mult: 0
  }
  param {
    lr_mult: 1
    decay_mult: 0
  }
  param {
    lr_mult: 0
    decay_mult: 0
  }
  param {
    lr_mult: 0
    decay_mult: 0
  }
  bn_param {
    scale_filler {
      type: "constant"
      value: 1
    }
    shift_filler {
      type: "constant"
      value: 0
    }
    decay: 0.05
    moving_average: true
  }
}
layer {
  name: "stem_mixed/branch_2/Conv2d_0c_3x3/bn/relu"
  type: "ReLU"
  bottom: "stem_mixed/branch_2/Conv2d_0c_3x3/bn"
  top: "stem_mixed/branch_2/Conv2d_0c_3x3/bn"
}
layer {
  name: "stem_mixed/branch_3/AvgPool_0a_3x3"
  type: "Pooling"
  bottom: "stem_base/MaxPool_5a_3x3"
  top: "stem_mixed/branch_3/AvgPool_0a_3x3"
  pooling_param {
    pool: AVE
    kernel_size: 3
    stride: 1
    pad: 1
  }
}
layer {
  name: "stem_mixed/branch_3/Con2d_0b_1x1"
  type: "ConvolutionData"
  bottom: "stem_mixed/branch_3/AvgPool_0a_3x3"
  top: "stem_mixed/branch_3/Con2d_0b_1x1"
  param {
    lr_mult: 1
    decay_mult: 1
  }
  convolution_param {
    num_output: 64
    bias_term: false
    pad: 0
    kernel_size: 1
    stride: 1
    weight_filler {
      type: "msra"
    }
  }
}
layer {
  name: "stem_mixed/branch_3/Con2d_0b_1x1/bn"
  type: "BNData"
  bottom: "stem_mixed/branch_3/Con2d_0b_1x1"
  top: "stem_mixed/branch_3/Con2d_0b_1x1/bn"
  param {
    lr_mult: 1
    decay_mult: 0
  }
  param {
    lr_mult: 1
    decay_mult: 0
  }
  param {
    lr_mult: 0
    decay_mult: 0
  }
  param {
    lr_mult: 0
    decay_mult: 0
  }
  bn_param {
    scale_filler {
      type: "constant"
      value: 1
    }
    shift_filler {
      type: "constant"
      value: 0
    }
    decay: 0.05
    moving_average: true
  }
}
layer {
  name: "stem_mixed/branch_3/Con2d_0b_1x1/bn/relu"
  type: "ReLU"
  bottom: "stem_mixed/branch_3/Con2d_0b_1x1/bn"
  top: "stem_mixed/branch_3/Con2d_0b_1x1/bn"
}
layer {
  name: "stem_mixed/concat"
  type: "Concat"
  bottom: "stem_mixed/branch_0/Conv2d_1x1/bn"
  bottom: "stem_mixed/branch_1/Conv2d_0b_5x5/bn"
  bottom: "stem_mixed/branch_2/Conv2d_0c_3x3/bn"
  bottom: "stem_mixed/branch_3/Con2d_0b_1x1/bn"
  top: "stem_mixed/concat"
  concat_param {
    axis: 1
  }
}
layer {
  name: "block35_1/branch_0/Conv2d_1x1"
  type: "ConvolutionData"
  bottom: "stem_mixed/concat"
  top: "block35_1/branch_0/Conv2d_1x1"
  param {
    lr_mult: 1
    decay_mult: 1
  }
  convolution_param {
    num_output: 32
    bias_term: false
    pad: 0
    kernel_size: 1
    stride: 1
    weight_filler {
      type: "msra"
    }
  }
}
layer {
  name: "block35_1/branch_0/Conv2d_1x1/bn"
  type: "BNData"
  bottom: "block35_1/branch_0/Conv2d_1x1"
  top: "block35_1/branch_0/Conv2d_1x1/bn"
  param {
    lr_mult: 1
    decay_mult: 0
  }
  param {
    lr_mult: 1
    decay_mult: 0
  }
  param {
    lr_mult: 0
    decay_mult: 0
  }
  param {
    lr_mult: 0
    decay_mult: 0
  }
  bn_param {
    scale_filler {
      type: "constant"
      value: 1
    }
    shift_filler {
      type: "constant"
      value: 0
    }
    decay: 0.05
    moving_average: true
  }
}
layer {
  name: "block35_1/branch_0/Conv2d_1x1/bn/relu"
  type: "ReLU"
  bottom: "block35_1/branch_0/Conv2d_1x1/bn"
  top: "block35_1/branch_0/Conv2d_1x1/bn"
}
layer {
  name: "block35_1/branch_1/Conv2d_0a_1x1"
  type: "ConvolutionData"
  bottom: "stem_mixed/concat"
  top: "block35_1/branch_1/Conv2d_0a_1x1"
  param {
    lr_mult: 1
    decay_mult: 1
  }
  convolution_param {
    num_output: 32
    bias_term: false
    pad: 0
    kernel_size: 1
    stride: 1
    weight_filler {
      type: "msra"
    }
  }
}
layer {
  name: "block35_1/branch_1/Conv2d_0a_1x1/bn"
  type: "BNData"
  bottom: "block35_1/branch_1/Conv2d_0a_1x1"
  top: "block35_1/branch_1/Conv2d_0a_1x1/bn"
  param {
    lr_mult: 1
    decay_mult: 0
  }
  param {
    lr_mult: 1
    decay_mult: 0
  }
  param {
    lr_mult: 0
    decay_mult: 0
  }
  param {
    lr_mult: 0
    decay_mult: 0
  }
  bn_param {
    scale_filler {
      type: "constant"
      value: 1
    }
    shift_filler {
      type: "constant"
      value: 0
    }
    decay: 0.05
    moving_average: true
  }
}
layer {
  name: "block35_1/branch_1/Conv2d_0a_1x1/bn/relu"
  type: "ReLU"
  bottom: "block35_1/branch_1/Conv2d_0a_1x1/bn"
  top: "block35_1/branch_1/Conv2d_0a_1x1/bn"
}
layer {
  name: "block35_1/branch_1/Conv2d_0b_3x3"
  type: "ConvolutionData"
  bottom: "block35_1/branch_1/Conv2d_0a_1x1/bn"
  top: "block35_1/branch_1/Conv2d_0b_3x3"
  param {
    lr_mult: 1
    decay_mult: 1
  }
  convolution_param {
    num_output: 32
    bias_term: false
    pad: 1
    kernel_size: 3
    stride: 1
    weight_filler {
      type: "msra"
    }
  }
}
layer {
  name: "block35_1/branch_1/Conv2d_0b_3x3/bn"
  type: "BNData"
  bottom: "block35_1/branch_1/Conv2d_0b_3x3"
  top: "block35_1/branch_1/Conv2d_0b_3x3/bn"
  param {
    lr_mult: 1
    decay_mult: 0
  }
  param {
    lr_mult: 1
    decay_mult: 0
  }
  param {
    lr_mult: 0
    decay_mult: 0
  }
  param {
    lr_mult: 0
    decay_mult: 0
  }
  bn_param {
    scale_filler {
      type: "constant"
      value: 1
    }
    shift_filler {
      type: "constant"
      value: 0
    }
    decay: 0.05
    moving_average: true
  }
}
layer {
  name: "block35_1/branch_1/Conv2d_0b_3x3/bn/relu"
  type: "ReLU"
  bottom: "block35_1/branch_1/Conv2d_0b_3x3/bn"
  top: "block35_1/branch_1/Conv2d_0b_3x3/bn"
}
layer {
  name: "block35_1/branch_2/Conv2d_0a_1x1"
  type: "ConvolutionData"
  bottom: "stem_mixed/concat"
  top: "block35_1/branch_2/Conv2d_0a_1x1"
  param {
    lr_mult: 1
    decay_mult: 1
  }
  convolution_param {
    num_output: 32
    bias_term: false
    pad: 0
    kernel_size: 1
    stride: 1
    weight_filler {
      type: "msra"
    }
  }
}
layer {
  name: "block35_1/branch_2/Conv2d_0a_1x1/bn"
  type: "BNData"
  bottom: "block35_1/branch_2/Conv2d_0a_1x1"
  top: "block35_1/branch_2/Conv2d_0a_1x1/bn"
  param {
    lr_mult: 1
    decay_mult: 0
  }
  param {
    lr_mult: 1
    decay_mult: 0
  }
  param {
    lr_mult: 0
    decay_mult: 0
  }
  param {
    lr_mult: 0
    decay_mult: 0
  }
  bn_param {
    scale_filler {
      type: "constant"
      value: 1
    }
    shift_filler {
      type: "constant"
      value: 0
    }
    decay: 0.05
    moving_average: true
  }
}
layer {
  name: "block35_1/branch_2/Conv2d_0a_1x1/bn/relu"
  type: "ReLU"
  bottom: "block35_1/branch_2/Conv2d_0a_1x1/bn"
  top: "block35_1/branch_2/Conv2d_0a_1x1/bn"
}
layer {
  name: "block35_1/branch_2/Conv2d_0b_3x3"
  type: "ConvolutionData"
  bottom: "block35_1/branch_2/Conv2d_0a_1x1/bn"
  top: "block35_1/branch_2/Conv2d_0b_3x3"
  param {
    lr_mult: 1
    decay_mult: 1
  }
  convolution_param {
    num_output: 48
    bias_term: false
    pad: 1
    kernel_size: 3
    stride: 1
    weight_filler {
      type: "msra"
    }
  }
}
layer {
  name: "block35_1/branch_2/Conv2d_0b_3x3/bn"
  type: "BNData"
  bottom: "block35_1/branch_2/Conv2d_0b_3x3"
  top: "block35_1/branch_2/Conv2d_0b_3x3/bn"
  param {
    lr_mult: 1
    decay_mult: 0
  }
  param {
    lr_mult: 1
    decay_mult: 0
  }
  param {
    lr_mult: 0
    decay_mult: 0
  }
  param {
    lr_mult: 0
    decay_mult: 0
  }
  bn_param {
    scale_filler {
      type: "constant"
      value: 1
    }
    shift_filler {
      type: "constant"
      value: 0
    }
    decay: 0.05
    moving_average: true
  }
}
layer {
  name: "block35_1/branch_2/Conv2d_0b_3x3/bn/relu"
  type: "ReLU"
  bottom: "block35_1/branch_2/Conv2d_0b_3x3/bn"
  top: "block35_1/branch_2/Conv2d_0b_3x3/bn"
}
layer {
  name: "block35_1/branch_2/Conv2d_0c_3x3"
  type: "ConvolutionData"
  bottom: "block35_1/branch_2/Conv2d_0b_3x3/bn"
  top: "block35_1/branch_2/Conv2d_0c_3x3"
  param {
    lr_mult: 1
    decay_mult: 1
  }
  convolution_param {
    num_output: 64
    bias_term: false
    pad: 1
    kernel_size: 3
    stride: 1
    weight_filler {
      type: "msra"
    }
  }
}
layer {
  name: "block35_1/branch_2/Conv2d_0c_3x3/bn"
  type: "BNData"
  bottom: "block35_1/branch_2/Conv2d_0c_3x3"
  top: "block35_1/branch_2/Conv2d_0c_3x3/bn"
  param {
    lr_mult: 1
    decay_mult: 0
  }
  param {
    lr_mult: 1
    decay_mult: 0
  }
  param {
    lr_mult: 0
    decay_mult: 0
  }
  param {
    lr_mult: 0
    decay_mult: 0
  }
  bn_param {
    scale_filler {
      type: "constant"
      value: 1
    }
    shift_filler {
      type: "constant"
      value: 0
    }
    decay: 0.05
    moving_average: true
  }
}
layer {
  name: "block35_1/branch_2/Conv2d_0c_3x3/bn/relu"
  type: "ReLU"
  bottom: "block35_1/branch_2/Conv2d_0c_3x3/bn"
  top: "block35_1/branch_2/Conv2d_0c_3x3/bn"
}
layer {
  name: "block35_1/concat"
  type: "Concat"
  bottom: "block35_1/branch_0/Conv2d_1x1/bn"
  bottom: "block35_1/branch_1/Conv2d_0b_3x3/bn"
  bottom: "block35_1/branch_2/Conv2d_0c_3x3/bn"
  top: "block35_1/concat"
  concat_param {
    axis: 1
  }
}
layer {
  name: "block35_1/concat/Conv2d_1x1"
  type: "ConvolutionData"
  bottom: "block35_1/concat"
  top: "block35_1/concat/Conv2d_1x1"
  param {
    lr_mult: 1
    decay_mult: 1
  }
  param {
    lr_mult: 2
    decay_mult: 0
  }
  convolution_param {
    num_output: 320
    bias_term: true
    pad: 0
    kernel_size: 1
    stride: 1
    weight_filler {
      type: "msra"
    }
    bias_filler {
      type: "constant"
      value: 0.2
    }
  }
}
layer {
  name: "block35_1/eltwise"
  type: "Eltwise"
  bottom: "stem_mixed/concat"
  bottom: "block35_1/concat/Conv2d_1x1"
  top: "block35_1/eltwise"
  eltwise_param {
    operation: SUM
    coeff: 1
    coeff: 0.17
  }
}
layer {
  name: "block35_1/eltwise/relu"
  type: "ReLU"
  bottom: "block35_1/eltwise"
  top: "block35_1/eltwise"
}
layer {
  name: "block35_2/branch_0/Conv2d_1x1"
  type: "ConvolutionData"
  bottom: "block35_1/eltwise"
  top: "block35_2/branch_0/Conv2d_1x1"
  param {
    lr_mult: 1
    decay_mult: 1
  }
  convolution_param {
    num_output: 32
    bias_term: false
    pad: 0
    kernel_size: 1
    stride: 1
    weight_filler {
      type: "msra"
    }
  }
}
layer {
  name: "block35_2/branch_0/Conv2d_1x1/bn"
  type: "BNData"
  bottom: "block35_2/branch_0/Conv2d_1x1"
  top: "block35_2/branch_0/Conv2d_1x1/bn"
  param {
    lr_mult: 1
    decay_mult: 0
  }
  param {
    lr_mult: 1
    decay_mult: 0
  }
  param {
    lr_mult: 0
    decay_mult: 0
  }
  param {
    lr_mult: 0
    decay_mult: 0
  }
  bn_param {
    scale_filler {
      type: "constant"
      value: 1
    }
    shift_filler {
      type: "constant"
      value: 0
    }
    decay: 0.05
    moving_average: true
  }
}
layer {
  name: "block35_2/branch_0/Conv2d_1x1/bn/relu"
  type: "ReLU"
  bottom: "block35_2/branch_0/Conv2d_1x1/bn"
  top: "block35_2/branch_0/Conv2d_1x1/bn"
}
layer {
  name: "block35_2/branch_1/Conv2d_0a_1x1"
  type: "ConvolutionData"
  bottom: "block35_1/eltwise"
  top: "block35_2/branch_1/Conv2d_0a_1x1"
  param {
    lr_mult: 1
    decay_mult: 1
  }
  convolution_param {
    num_output: 32
    bias_term: false
    pad: 0
    kernel_size: 1
    stride: 1
    weight_filler {
      type: "msra"
    }
  }
}
layer {
  name: "block35_2/branch_1/Conv2d_0a_1x1/bn"
  type: "BNData"
  bottom: "block35_2/branch_1/Conv2d_0a_1x1"
  top: "block35_2/branch_1/Conv2d_0a_1x1/bn"
  param {
    lr_mult: 1
    decay_mult: 0
  }
  param {
    lr_mult: 1
    decay_mult: 0
  }
  param {
    lr_mult: 0
    decay_mult: 0
  }
  param {
    lr_mult: 0
    decay_mult: 0
  }
  bn_param {
    scale_filler {
      type: "constant"
      value: 1
    }
    shift_filler {
      type: "constant"
      value: 0
    }
    decay: 0.05
    moving_average: true
  }
}
layer {
  name: "block35_2/branch_1/Conv2d_0a_1x1/bn/relu"
  type: "ReLU"
  bottom: "block35_2/branch_1/Conv2d_0a_1x1/bn"
  top: "block35_2/branch_1/Conv2d_0a_1x1/bn"
}
layer {
  name: "block35_2/branch_1/Conv2d_0b_3x3"
  type: "ConvolutionData"
  bottom: "block35_2/branch_1/Conv2d_0a_1x1/bn"
  top: "block35_2/branch_1/Conv2d_0b_3x3"
  param {
    lr_mult: 1
    decay_mult: 1
  }
  convolution_param {
    num_output: 32
    bias_term: false
    pad: 1
    kernel_size: 3
    stride: 1
    weight_filler {
      type: "msra"
    }
  }
}
layer {
  name: "block35_2/branch_1/Conv2d_0b_3x3/bn"
  type: "BNData"
  bottom: "block35_2/branch_1/Conv2d_0b_3x3"
  top: "block35_2/branch_1/Conv2d_0b_3x3/bn"
  param {
    lr_mult: 1
    decay_mult: 0
  }
  param {
    lr_mult: 1
    decay_mult: 0
  }
  param {
    lr_mult: 0
    decay_mult: 0
  }
  param {
    lr_mult: 0
    decay_mult: 0
  }
  bn_param {
    scale_filler {
      type: "constant"
      value: 1
    }
    shift_filler {
      type: "constant"
      value: 0
    }
    decay: 0.05
    moving_average: true
  }
}
layer {
  name: "block35_2/branch_1/Conv2d_0b_3x3/bn/relu"
  type: "ReLU"
  bottom: "block35_2/branch_1/Conv2d_0b_3x3/bn"
  top: "block35_2/branch_1/Conv2d_0b_3x3/bn"
}
layer {
  name: "block35_2/branch_2/Conv2d_0a_1x1"
  type: "ConvolutionData"
  bottom: "block35_1/eltwise"
  top: "block35_2/branch_2/Conv2d_0a_1x1"
  param {
    lr_mult: 1
    decay_mult: 1
  }
  convolution_param {
    num_output: 32
    bias_term: false
    pad: 0
    kernel_size: 1
    stride: 1
    weight_filler {
      type: "msra"
    }
  }
}
layer {
  name: "block35_2/branch_2/Conv2d_0a_1x1/bn"
  type: "BNData"
  bottom: "block35_2/branch_2/Conv2d_0a_1x1"
  top: "block35_2/branch_2/Conv2d_0a_1x1/bn"
  param {
    lr_mult: 1
    decay_mult: 0
  }
  param {
    lr_mult: 1
    decay_mult: 0
  }
  param {
    lr_mult: 0
    decay_mult: 0
  }
  param {
    lr_mult: 0
    decay_mult: 0
  }
  bn_param {
    scale_filler {
      type: "constant"
      value: 1
    }
    shift_filler {
      type: "constant"
      value: 0
    }
    decay: 0.05
    moving_average: true
  }
}
layer {
  name: "block35_2/branch_2/Conv2d_0a_1x1/bn/relu"
  type: "ReLU"
  bottom: "block35_2/branch_2/Conv2d_0a_1x1/bn"
  top: "block35_2/branch_2/Conv2d_0a_1x1/bn"
}
layer {
  name: "block35_2/branch_2/Conv2d_0b_3x3"
  type: "ConvolutionData"
  bottom: "block35_2/branch_2/Conv2d_0a_1x1/bn"
  top: "block35_2/branch_2/Conv2d_0b_3x3"
  param {
    lr_mult: 1
    decay_mult: 1
  }
  convolution_param {
    num_output: 48
    bias_term: false
    pad: 1
    kernel_size: 3
    stride: 1
    weight_filler {
      type: "msra"
    }
  }
}
layer {
  name: "block35_2/branch_2/Conv2d_0b_3x3/bn"
  type: "BNData"
  bottom: "block35_2/branch_2/Conv2d_0b_3x3"
  top: "block35_2/branch_2/Conv2d_0b_3x3/bn"
  param {
    lr_mult: 1
    decay_mult: 0
  }
  param {
    lr_mult: 1
    decay_mult: 0
  }
  param {
    lr_mult: 0
    decay_mult: 0
  }
  param {
    lr_mult: 0
    decay_mult: 0
  }
  bn_param {
    scale_filler {
      type: "constant"
      value: 1
    }
    shift_filler {
      type: "constant"
      value: 0
    }
    decay: 0.05
    moving_average: true
  }
}
layer {
  name: "block35_2/branch_2/Conv2d_0b_3x3/bn/relu"
  type: "ReLU"
  bottom: "block35_2/branch_2/Conv2d_0b_3x3/bn"
  top: "block35_2/branch_2/Conv2d_0b_3x3/bn"
}
layer {
  name: "block35_2/branch_2/Conv2d_0c_3x3"
  type: "ConvolutionData"
  bottom: "block35_2/branch_2/Conv2d_0b_3x3/bn"
  top: "block35_2/branch_2/Conv2d_0c_3x3"
  param {
    lr_mult: 1
    decay_mult: 1
  }
  convolution_param {
    num_output: 64
    bias_term: false
    pad: 1
    kernel_size: 3
    stride: 1
    weight_filler {
      type: "msra"
    }
  }
}
layer {
  name: "block35_2/branch_2/Conv2d_0c_3x3/bn"
  type: "BNData"
  bottom: "block35_2/branch_2/Conv2d_0c_3x3"
  top: "block35_2/branch_2/Conv2d_0c_3x3/bn"
  param {
    lr_mult: 1
    decay_mult: 0
  }
  param {
    lr_mult: 1
    decay_mult: 0
  }
  param {
    lr_mult: 0
    decay_mult: 0
  }
  param {
    lr_mult: 0
    decay_mult: 0
  }
  bn_param {
    scale_filler {
      type: "constant"
      value: 1
    }
    shift_filler {
      type: "constant"
      value: 0
    }
    decay: 0.05
    moving_average: true
  }
}
layer {
  name: "block35_2/branch_2/Conv2d_0c_3x3/bn/relu"
  type: "ReLU"
  bottom: "block35_2/branch_2/Conv2d_0c_3x3/bn"
  top: "block35_2/branch_2/Conv2d_0c_3x3/bn"
}
layer {
  name: "block35_2/concat"
  type: "Concat"
  bottom: "block35_2/branch_0/Conv2d_1x1/bn"
  bottom: "block35_2/branch_1/Conv2d_0b_3x3/bn"
  bottom: "block35_2/branch_2/Conv2d_0c_3x3/bn"
  top: "block35_2/concat"
  concat_param {
    axis: 1
  }
}
layer {
  name: "block35_2/concat/Conv2d_1x1"
  type: "ConvolutionData"
  bottom: "block35_2/concat"
  top: "block35_2/concat/Conv2d_1x1"
  param {
    lr_mult: 1
    decay_mult: 1
  }
  param {
    lr_mult: 2
    decay_mult: 0
  }
  convolution_param {
    num_output: 320
    bias_term: true
    pad: 0
    kernel_size: 1
    stride: 1
    weight_filler {
      type: "msra"
    }
    bias_filler {
      type: "constant"
      value: 0.2
    }
  }
}
layer {
  name: "block35_2/eltwise"
  type: "Eltwise"
  bottom: "block35_1/eltwise"
  bottom: "block35_2/concat/Conv2d_1x1"
  top: "block35_2/eltwise"
  eltwise_param {
    operation: SUM
    coeff: 1
    coeff: 0.17
  }
}
layer {
  name: "block35_2/eltwise/relu"
  type: "ReLU"
  bottom: "block35_2/eltwise"
  top: "block35_2/eltwise"
}
layer {
  name: "block35_3/branch_0/Conv2d_1x1"
  type: "ConvolutionData"
  bottom: "block35_2/eltwise"
  top: "block35_3/branch_0/Conv2d_1x1"
  param {
    lr_mult: 1
    decay_mult: 1
  }
  convolution_param {
    num_output: 32
    bias_term: false
    pad: 0
    kernel_size: 1
    stride: 1
    weight_filler {
      type: "msra"
    }
  }
}
layer {
  name: "block35_3/branch_0/Conv2d_1x1/bn"
  type: "BNData"
  bottom: "block35_3/branch_0/Conv2d_1x1"
  top: "block35_3/branch_0/Conv2d_1x1/bn"
  param {
    lr_mult: 1
    decay_mult: 0
  }
  param {
    lr_mult: 1
    decay_mult: 0
  }
  param {
    lr_mult: 0
    decay_mult: 0
  }
  param {
    lr_mult: 0
    decay_mult: 0
  }
  bn_param {
    scale_filler {
      type: "constant"
      value: 1
    }
    shift_filler {
      type: "constant"
      value: 0
    }
    decay: 0.05
    moving_average: true
  }
}
layer {
  name: "block35_3/branch_0/Conv2d_1x1/bn/relu"
  type: "ReLU"
  bottom: "block35_3/branch_0/Conv2d_1x1/bn"
  top: "block35_3/branch_0/Conv2d_1x1/bn"
}
layer {
  name: "block35_3/branch_1/Conv2d_0a_1x1"
  type: "ConvolutionData"
  bottom: "block35_2/eltwise"
  top: "block35_3/branch_1/Conv2d_0a_1x1"
  param {
    lr_mult: 1
    decay_mult: 1
  }
  convolution_param {
    num_output: 32
    bias_term: false
    pad: 0
    kernel_size: 1
    stride: 1
    weight_filler {
      type: "msra"
    }
  }
}
layer {
  name: "block35_3/branch_1/Conv2d_0a_1x1/bn"
  type: "BNData"
  bottom: "block35_3/branch_1/Conv2d_0a_1x1"
  top: "block35_3/branch_1/Conv2d_0a_1x1/bn"
  param {
    lr_mult: 1
    decay_mult: 0
  }
  param {
    lr_mult: 1
    decay_mult: 0
  }
  param {
    lr_mult: 0
    decay_mult: 0
  }
  param {
    lr_mult: 0
    decay_mult: 0
  }
  bn_param {
    scale_filler {
      type: "constant"
      value: 1
    }
    shift_filler {
      type: "constant"
      value: 0
    }
    decay: 0.05
    moving_average: true
  }
}
layer {
  name: "block35_3/branch_1/Conv2d_0a_1x1/bn/relu"
  type: "ReLU"
  bottom: "block35_3/branch_1/Conv2d_0a_1x1/bn"
  top: "block35_3/branch_1/Conv2d_0a_1x1/bn"
}
layer {
  name: "block35_3/branch_1/Conv2d_0b_3x3"
  type: "ConvolutionData"
  bottom: "block35_3/branch_1/Conv2d_0a_1x1/bn"
  top: "block35_3/branch_1/Conv2d_0b_3x3"
  param {
    lr_mult: 1
    decay_mult: 1
  }
  convolution_param {
    num_output: 32
    bias_term: false
    pad: 1
    kernel_size: 3
    stride: 1
    weight_filler {
      type: "msra"
    }
  }
}
layer {
  name: "block35_3/branch_1/Conv2d_0b_3x3/bn"
  type: "BNData"
  bottom: "block35_3/branch_1/Conv2d_0b_3x3"
  top: "block35_3/branch_1/Conv2d_0b_3x3/bn"
  param {
    lr_mult: 1
    decay_mult: 0
  }
  param {
    lr_mult: 1
    decay_mult: 0
  }
  param {
    lr_mult: 0
    decay_mult: 0
  }
  param {
    lr_mult: 0
    decay_mult: 0
  }
  bn_param {
    scale_filler {
      type: "constant"
      value: 1
    }
    shift_filler {
      type: "constant"
      value: 0
    }
    decay: 0.05
    moving_average: true
  }
}
layer {
  name: "block35_3/branch_1/Conv2d_0b_3x3/bn/relu"
  type: "ReLU"
  bottom: "block35_3/branch_1/Conv2d_0b_3x3/bn"
  top: "block35_3/branch_1/Conv2d_0b_3x3/bn"
}
layer {
  name: "block35_3/branch_2/Conv2d_0a_1x1"
  type: "ConvolutionData"
  bottom: "block35_2/eltwise"
  top: "block35_3/branch_2/Conv2d_0a_1x1"
  param {
    lr_mult: 1
    decay_mult: 1
  }
  convolution_param {
    num_output: 32
    bias_term: false
    pad: 0
    kernel_size: 1
    stride: 1
    weight_filler {
      type: "msra"
    }
  }
}
layer {
  name: "block35_3/branch_2/Conv2d_0a_1x1/bn"
  type: "BNData"
  bottom: "block35_3/branch_2/Conv2d_0a_1x1"
  top: "block35_3/branch_2/Conv2d_0a_1x1/bn"
  param {
    lr_mult: 1
    decay_mult: 0
  }
  param {
    lr_mult: 1
    decay_mult: 0
  }
  param {
    lr_mult: 0
    decay_mult: 0
  }
  param {
    lr_mult: 0
    decay_mult: 0
  }
  bn_param {
    scale_filler {
      type: "constant"
      value: 1
    }
    shift_filler {
      type: "constant"
      value: 0
    }
    decay: 0.05
    moving_average: true
  }
}
layer {
  name: "block35_3/branch_2/Conv2d_0a_1x1/bn/relu"
  type: "ReLU"
  bottom: "block35_3/branch_2/Conv2d_0a_1x1/bn"
  top: "block35_3/branch_2/Conv2d_0a_1x1/bn"
}
layer {
  name: "block35_3/branch_2/Conv2d_0b_3x3"
  type: "ConvolutionData"
  bottom: "block35_3/branch_2/Conv2d_0a_1x1/bn"
  top: "block35_3/branch_2/Conv2d_0b_3x3"
  param {
    lr_mult: 1
    decay_mult: 1
  }
  convolution_param {
    num_output: 48
    bias_term: false
    pad: 1
    kernel_size: 3
    stride: 1
    weight_filler {
      type: "msra"
    }
  }
}
layer {
  name: "block35_3/branch_2/Conv2d_0b_3x3/bn"
  type: "BNData"
  bottom: "block35_3/branch_2/Conv2d_0b_3x3"
  top: "block35_3/branch_2/Conv2d_0b_3x3/bn"
  param {
    lr_mult: 1
    decay_mult: 0
  }
  param {
    lr_mult: 1
    decay_mult: 0
  }
  param {
    lr_mult: 0
    decay_mult: 0
  }
  param {
    lr_mult: 0
    decay_mult: 0
  }
  bn_param {
    scale_filler {
      type: "constant"
      value: 1
    }
    shift_filler {
      type: "constant"
      value: 0
    }
    decay: 0.05
    moving_average: true
  }
}
layer {
  name: "block35_3/branch_2/Conv2d_0b_3x3/bn/relu"
  type: "ReLU"
  bottom: "block35_3/branch_2/Conv2d_0b_3x3/bn"
  top: "block35_3/branch_2/Conv2d_0b_3x3/bn"
}
layer {
  name: "block35_3/branch_2/Conv2d_0c_3x3"
  type: "ConvolutionData"
  bottom: "block35_3/branch_2/Conv2d_0b_3x3/bn"
  top: "block35_3/branch_2/Conv2d_0c_3x3"
  param {
    lr_mult: 1
    decay_mult: 1
  }
  convolution_param {
    num_output: 64
    bias_term: false
    pad: 1
    kernel_size: 3
    stride: 1
    weight_filler {
      type: "msra"
    }
  }
}
layer {
  name: "block35_3/branch_2/Conv2d_0c_3x3/bn"
  type: "BNData"
  bottom: "block35_3/branch_2/Conv2d_0c_3x3"
  top: "block35_3/branch_2/Conv2d_0c_3x3/bn"
  param {
    lr_mult: 1
    decay_mult: 0
  }
  param {
    lr_mult: 1
    decay_mult: 0
  }
  param {
    lr_mult: 0
    decay_mult: 0
  }
  param {
    lr_mult: 0
    decay_mult: 0
  }
  bn_param {
    scale_filler {
      type: "constant"
      value: 1
    }
    shift_filler {
      type: "constant"
      value: 0
    }
    decay: 0.05
    moving_average: true
  }
}
layer {
  name: "block35_3/branch_2/Conv2d_0c_3x3/bn/relu"
  type: "ReLU"
  bottom: "block35_3/branch_2/Conv2d_0c_3x3/bn"
  top: "block35_3/branch_2/Conv2d_0c_3x3/bn"
}
layer {
  name: "block35_3/concat"
  type: "Concat"
  bottom: "block35_3/branch_0/Conv2d_1x1/bn"
  bottom: "block35_3/branch_1/Conv2d_0b_3x3/bn"
  bottom: "block35_3/branch_2/Conv2d_0c_3x3/bn"
  top: "block35_3/concat"
  concat_param {
    axis: 1
  }
}
layer {
  name: "block35_3/concat/Conv2d_1x1"
  type: "ConvolutionData"
  bottom: "block35_3/concat"
  top: "block35_3/concat/Conv2d_1x1"
  param {
    lr_mult: 1
    decay_mult: 1
  }
  param {
    lr_mult: 2
    decay_mult: 0
  }
  convolution_param {
    num_output: 320
    bias_term: true
    pad: 0
    kernel_size: 1
    stride: 1
    weight_filler {
      type: "msra"
    }
    bias_filler {
      type: "constant"
      value: 0.2
    }
  }
}
layer {
  name: "block35_3/eltwise"
  type: "Eltwise"
  bottom: "block35_2/eltwise"
  bottom: "block35_3/concat/Conv2d_1x1"
  top: "block35_3/eltwise"
  eltwise_param {
    operation: SUM
    coeff: 1
    coeff: 0.17
  }
}
layer {
  name: "block35_3/eltwise/relu"
  type: "ReLU"
  bottom: "block35_3/eltwise"
  top: "block35_3/eltwise"
}
layer {
  name: "block35_4/branch_0/Conv2d_1x1"
  type: "ConvolutionData"
  bottom: "block35_3/eltwise"
  top: "block35_4/branch_0/Conv2d_1x1"
  param {
    lr_mult: 1
    decay_mult: 1
  }
  convolution_param {
    num_output: 32
    bias_term: false
    pad: 0
    kernel_size: 1
    stride: 1
    weight_filler {
      type: "msra"
    }
  }
}
layer {
  name: "block35_4/branch_0/Conv2d_1x1/bn"
  type: "BNData"
  bottom: "block35_4/branch_0/Conv2d_1x1"
  top: "block35_4/branch_0/Conv2d_1x1/bn"
  param {
    lr_mult: 1
    decay_mult: 0
  }
  param {
    lr_mult: 1
    decay_mult: 0
  }
  param {
    lr_mult: 0
    decay_mult: 0
  }
  param {
    lr_mult: 0
    decay_mult: 0
  }
  bn_param {
    scale_filler {
      type: "constant"
      value: 1
    }
    shift_filler {
      type: "constant"
      value: 0
    }
    decay: 0.05
    moving_average: true
  }
}
layer {
  name: "block35_4/branch_0/Conv2d_1x1/bn/relu"
  type: "ReLU"
  bottom: "block35_4/branch_0/Conv2d_1x1/bn"
  top: "block35_4/branch_0/Conv2d_1x1/bn"
}
layer {
  name: "block35_4/branch_1/Conv2d_0a_1x1"
  type: "ConvolutionData"
  bottom: "block35_3/eltwise"
  top: "block35_4/branch_1/Conv2d_0a_1x1"
  param {
    lr_mult: 1
    decay_mult: 1
  }
  convolution_param {
    num_output: 32
    bias_term: false
    pad: 0
    kernel_size: 1
    stride: 1
    weight_filler {
      type: "msra"
    }
  }
}
layer {
  name: "block35_4/branch_1/Conv2d_0a_1x1/bn"
  type: "BNData"
  bottom: "block35_4/branch_1/Conv2d_0a_1x1"
  top: "block35_4/branch_1/Conv2d_0a_1x1/bn"
  param {
    lr_mult: 1
    decay_mult: 0
  }
  param {
    lr_mult: 1
    decay_mult: 0
  }
  param {
    lr_mult: 0
    decay_mult: 0
  }
  param {
    lr_mult: 0
    decay_mult: 0
  }
  bn_param {
    scale_filler {
      type: "constant"
      value: 1
    }
    shift_filler {
      type: "constant"
      value: 0
    }
    decay: 0.05
    moving_average: true
  }
}
layer {
  name: "block35_4/branch_1/Conv2d_0a_1x1/bn/relu"
  type: "ReLU"
  bottom: "block35_4/branch_1/Conv2d_0a_1x1/bn"
  top: "block35_4/branch_1/Conv2d_0a_1x1/bn"
}
layer {
  name: "block35_4/branch_1/Conv2d_0b_3x3"
  type: "ConvolutionData"
  bottom: "block35_4/branch_1/Conv2d_0a_1x1/bn"
  top: "block35_4/branch_1/Conv2d_0b_3x3"
  param {
    lr_mult: 1
    decay_mult: 1
  }
  convolution_param {
    num_output: 32
    bias_term: false
    pad: 1
    kernel_size: 3
    stride: 1
    weight_filler {
      type: "msra"
    }
  }
}
layer {
  name: "block35_4/branch_1/Conv2d_0b_3x3/bn"
  type: "BNData"
  bottom: "block35_4/branch_1/Conv2d_0b_3x3"
  top: "block35_4/branch_1/Conv2d_0b_3x3/bn"
  param {
    lr_mult: 1
    decay_mult: 0
  }
  param {
    lr_mult: 1
    decay_mult: 0
  }
  param {
    lr_mult: 0
    decay_mult: 0
  }
  param {
    lr_mult: 0
    decay_mult: 0
  }
  bn_param {
    scale_filler {
      type: "constant"
      value: 1
    }
    shift_filler {
      type: "constant"
      value: 0
    }
    decay: 0.05
    moving_average: true
  }
}
layer {
  name: "block35_4/branch_1/Conv2d_0b_3x3/bn/relu"
  type: "ReLU"
  bottom: "block35_4/branch_1/Conv2d_0b_3x3/bn"
  top: "block35_4/branch_1/Conv2d_0b_3x3/bn"
}
layer {
  name: "block35_4/branch_2/Conv2d_0a_1x1"
  type: "ConvolutionData"
  bottom: "block35_3/eltwise"
  top: "block35_4/branch_2/Conv2d_0a_1x1"
  param {
    lr_mult: 1
    decay_mult: 1
  }
  convolution_param {
    num_output: 32
    bias_term: false
    pad: 0
    kernel_size: 1
    stride: 1
    weight_filler {
      type: "msra"
    }
  }
}
layer {
  name: "block35_4/branch_2/Conv2d_0a_1x1/bn"
  type: "BNData"
  bottom: "block35_4/branch_2/Conv2d_0a_1x1"
  top: "block35_4/branch_2/Conv2d_0a_1x1/bn"
  param {
    lr_mult: 1
    decay_mult: 0
  }
  param {
    lr_mult: 1
    decay_mult: 0
  }
  param {
    lr_mult: 0
    decay_mult: 0
  }
  param {
    lr_mult: 0
    decay_mult: 0
  }
  bn_param {
    scale_filler {
      type: "constant"
      value: 1
    }
    shift_filler {
      type: "constant"
      value: 0
    }
    decay: 0.05
    moving_average: true
  }
}
layer {
  name: "block35_4/branch_2/Conv2d_0a_1x1/bn/relu"
  type: "ReLU"
  bottom: "block35_4/branch_2/Conv2d_0a_1x1/bn"
  top: "block35_4/branch_2/Conv2d_0a_1x1/bn"
}
layer {
  name: "block35_4/branch_2/Conv2d_0b_3x3"
  type: "ConvolutionData"
  bottom: "block35_4/branch_2/Conv2d_0a_1x1/bn"
  top: "block35_4/branch_2/Conv2d_0b_3x3"
  param {
    lr_mult: 1
    decay_mult: 1
  }
  convolution_param {
    num_output: 48
    bias_term: false
    pad: 1
    kernel_size: 3
    stride: 1
    weight_filler {
      type: "msra"
    }
  }
}
layer {
  name: "block35_4/branch_2/Conv2d_0b_3x3/bn"
  type: "BNData"
  bottom: "block35_4/branch_2/Conv2d_0b_3x3"
  top: "block35_4/branch_2/Conv2d_0b_3x3/bn"
  param {
    lr_mult: 1
    decay_mult: 0
  }
  param {
    lr_mult: 1
    decay_mult: 0
  }
  param {
    lr_mult: 0
    decay_mult: 0
  }
  param {
    lr_mult: 0
    decay_mult: 0
  }
  bn_param {
    scale_filler {
      type: "constant"
      value: 1
    }
    shift_filler {
      type: "constant"
      value: 0
    }
    decay: 0.05
    moving_average: true
  }
}
layer {
  name: "block35_4/branch_2/Conv2d_0b_3x3/bn/relu"
  type: "ReLU"
  bottom: "block35_4/branch_2/Conv2d_0b_3x3/bn"
  top: "block35_4/branch_2/Conv2d_0b_3x3/bn"
}
layer {
  name: "block35_4/branch_2/Conv2d_0c_3x3"
  type: "ConvolutionData"
  bottom: "block35_4/branch_2/Conv2d_0b_3x3/bn"
  top: "block35_4/branch_2/Conv2d_0c_3x3"
  param {
    lr_mult: 1
    decay_mult: 1
  }
  convolution_param {
    num_output: 64
    bias_term: false
    pad: 1
    kernel_size: 3
    stride: 1
    weight_filler {
      type: "msra"
    }
  }
}
layer {
  name: "block35_4/branch_2/Conv2d_0c_3x3/bn"
  type: "BNData"
  bottom: "block35_4/branch_2/Conv2d_0c_3x3"
  top: "block35_4/branch_2/Conv2d_0c_3x3/bn"
  param {
    lr_mult: 1
    decay_mult: 0
  }
  param {
    lr_mult: 1
    decay_mult: 0
  }
  param {
    lr_mult: 0
    decay_mult: 0
  }
  param {
    lr_mult: 0
    decay_mult: 0
  }
  bn_param {
    scale_filler {
      type: "constant"
      value: 1
    }
    shift_filler {
      type: "constant"
      value: 0
    }
    decay: 0.05
    moving_average: true
  }
}
layer {
  name: "block35_4/branch_2/Conv2d_0c_3x3/bn/relu"
  type: "ReLU"
  bottom: "block35_4/branch_2/Conv2d_0c_3x3/bn"
  top: "block35_4/branch_2/Conv2d_0c_3x3/bn"
}
layer {
  name: "block35_4/concat"
  type: "Concat"
  bottom: "block35_4/branch_0/Conv2d_1x1/bn"
  bottom: "block35_4/branch_1/Conv2d_0b_3x3/bn"
  bottom: "block35_4/branch_2/Conv2d_0c_3x3/bn"
  top: "block35_4/concat"
  concat_param {
    axis: 1
  }
}
layer {
  name: "block35_4/concat/Conv2d_1x1"
  type: "ConvolutionData"
  bottom: "block35_4/concat"
  top: "block35_4/concat/Conv2d_1x1"
  param {
    lr_mult: 1
    decay_mult: 1
  }
  param {
    lr_mult: 2
    decay_mult: 0
  }
  convolution_param {
    num_output: 320
    bias_term: true
    pad: 0
    kernel_size: 1
    stride: 1
    weight_filler {
      type: "msra"
    }
    bias_filler {
      type: "constant"
      value: 0.2
    }
  }
}
layer {
  name: "block35_4/eltwise"
  type: "Eltwise"
  bottom: "block35_3/eltwise"
  bottom: "block35_4/concat/Conv2d_1x1"
  top: "block35_4/eltwise"
  eltwise_param {
    operation: SUM
    coeff: 1
    coeff: 0.17
  }
}
layer {
  name: "block35_4/eltwise/relu"
  type: "ReLU"
  bottom: "block35_4/eltwise"
  top: "block35_4/eltwise"
}
layer {
  name: "block35_5/branch_0/Conv2d_1x1"
  type: "ConvolutionData"
  bottom: "block35_4/eltwise"
  top: "block35_5/branch_0/Conv2d_1x1"
  param {
    lr_mult: 1
    decay_mult: 1
  }
  convolution_param {
    num_output: 32
    bias_term: false
    pad: 0
    kernel_size: 1
    stride: 1
    weight_filler {
      type: "msra"
    }
  }
}
layer {
  name: "block35_5/branch_0/Conv2d_1x1/bn"
  type: "BNData"
  bottom: "block35_5/branch_0/Conv2d_1x1"
  top: "block35_5/branch_0/Conv2d_1x1/bn"
  param {
    lr_mult: 1
    decay_mult: 0
  }
  param {
    lr_mult: 1
    decay_mult: 0
  }
  param {
    lr_mult: 0
    decay_mult: 0
  }
  param {
    lr_mult: 0
    decay_mult: 0
  }
  bn_param {
    scale_filler {
      type: "constant"
      value: 1
    }
    shift_filler {
      type: "constant"
      value: 0
    }
    decay: 0.05
    moving_average: true
  }
}
layer {
  name: "block35_5/branch_0/Conv2d_1x1/bn/relu"
  type: "ReLU"
  bottom: "block35_5/branch_0/Conv2d_1x1/bn"
  top: "block35_5/branch_0/Conv2d_1x1/bn"
}
layer {
  name: "block35_5/branch_1/Conv2d_0a_1x1"
  type: "ConvolutionData"
  bottom: "block35_4/eltwise"
  top: "block35_5/branch_1/Conv2d_0a_1x1"
  param {
    lr_mult: 1
    decay_mult: 1
  }
  convolution_param {
    num_output: 32
    bias_term: false
    pad: 0
    kernel_size: 1
    stride: 1
    weight_filler {
      type: "msra"
    }
  }
}
layer {
  name: "block35_5/branch_1/Conv2d_0a_1x1/bn"
  type: "BNData"
  bottom: "block35_5/branch_1/Conv2d_0a_1x1"
  top: "block35_5/branch_1/Conv2d_0a_1x1/bn"
  param {
    lr_mult: 1
    decay_mult: 0
  }
  param {
    lr_mult: 1
    decay_mult: 0
  }
  param {
    lr_mult: 0
    decay_mult: 0
  }
  param {
    lr_mult: 0
    decay_mult: 0
  }
  bn_param {
    scale_filler {
      type: "constant"
      value: 1
    }
    shift_filler {
      type: "constant"
      value: 0
    }
    decay: 0.05
    moving_average: true
  }
}
layer {
  name: "block35_5/branch_1/Conv2d_0a_1x1/bn/relu"
  type: "ReLU"
  bottom: "block35_5/branch_1/Conv2d_0a_1x1/bn"
  top: "block35_5/branch_1/Conv2d_0a_1x1/bn"
}
layer {
  name: "block35_5/branch_1/Conv2d_0b_3x3"
  type: "ConvolutionData"
  bottom: "block35_5/branch_1/Conv2d_0a_1x1/bn"
  top: "block35_5/branch_1/Conv2d_0b_3x3"
  param {
    lr_mult: 1
    decay_mult: 1
  }
  convolution_param {
    num_output: 32
    bias_term: false
    pad: 1
    kernel_size: 3
    stride: 1
    weight_filler {
      type: "msra"
    }
  }
}
layer {
  name: "block35_5/branch_1/Conv2d_0b_3x3/bn"
  type: "BNData"
  bottom: "block35_5/branch_1/Conv2d_0b_3x3"
  top: "block35_5/branch_1/Conv2d_0b_3x3/bn"
  param {
    lr_mult: 1
    decay_mult: 0
  }
  param {
    lr_mult: 1
    decay_mult: 0
  }
  param {
    lr_mult: 0
    decay_mult: 0
  }
  param {
    lr_mult: 0
    decay_mult: 0
  }
  bn_param {
    scale_filler {
      type: "constant"
      value: 1
    }
    shift_filler {
      type: "constant"
      value: 0
    }
    decay: 0.05
    moving_average: true
  }
}
layer {
  name: "block35_5/branch_1/Conv2d_0b_3x3/bn/relu"
  type: "ReLU"
  bottom: "block35_5/branch_1/Conv2d_0b_3x3/bn"
  top: "block35_5/branch_1/Conv2d_0b_3x3/bn"
}
layer {
  name: "block35_5/branch_2/Conv2d_0a_1x1"
  type: "ConvolutionData"
  bottom: "block35_4/eltwise"
  top: "block35_5/branch_2/Conv2d_0a_1x1"
  param {
    lr_mult: 1
    decay_mult: 1
  }
  convolution_param {
    num_output: 32
    bias_term: false
    pad: 0
    kernel_size: 1
    stride: 1
    weight_filler {
      type: "msra"
    }
  }
}
layer {
  name: "block35_5/branch_2/Conv2d_0a_1x1/bn"
  type: "BNData"
  bottom: "block35_5/branch_2/Conv2d_0a_1x1"
  top: "block35_5/branch_2/Conv2d_0a_1x1/bn"
  param {
    lr_mult: 1
    decay_mult: 0
  }
  param {
    lr_mult: 1
    decay_mult: 0
  }
  param {
    lr_mult: 0
    decay_mult: 0
  }
  param {
    lr_mult: 0
    decay_mult: 0
  }
  bn_param {
    scale_filler {
      type: "constant"
      value: 1
    }
    shift_filler {
      type: "constant"
      value: 0
    }
    decay: 0.05
    moving_average: true
  }
}
layer {
  name: "block35_5/branch_2/Conv2d_0a_1x1/bn/relu"
  type: "ReLU"
  bottom: "block35_5/branch_2/Conv2d_0a_1x1/bn"
  top: "block35_5/branch_2/Conv2d_0a_1x1/bn"
}
layer {
  name: "block35_5/branch_2/Conv2d_0b_3x3"
  type: "ConvolutionData"
  bottom: "block35_5/branch_2/Conv2d_0a_1x1/bn"
  top: "block35_5/branch_2/Conv2d_0b_3x3"
  param {
    lr_mult: 1
    decay_mult: 1
  }
  convolution_param {
    num_output: 48
    bias_term: false
    pad: 1
    kernel_size: 3
    stride: 1
    weight_filler {
      type: "msra"
    }
  }
}
layer {
  name: "block35_5/branch_2/Conv2d_0b_3x3/bn"
  type: "BNData"
  bottom: "block35_5/branch_2/Conv2d_0b_3x3"
  top: "block35_5/branch_2/Conv2d_0b_3x3/bn"
  param {
    lr_mult: 1
    decay_mult: 0
  }
  param {
    lr_mult: 1
    decay_mult: 0
  }
  param {
    lr_mult: 0
    decay_mult: 0
  }
  param {
    lr_mult: 0
    decay_mult: 0
  }
  bn_param {
    scale_filler {
      type: "constant"
      value: 1
    }
    shift_filler {
      type: "constant"
      value: 0
    }
    decay: 0.05
    moving_average: true
  }
}
layer {
  name: "block35_5/branch_2/Conv2d_0b_3x3/bn/relu"
  type: "ReLU"
  bottom: "block35_5/branch_2/Conv2d_0b_3x3/bn"
  top: "block35_5/branch_2/Conv2d_0b_3x3/bn"
}
layer {
  name: "block35_5/branch_2/Conv2d_0c_3x3"
  type: "ConvolutionData"
  bottom: "block35_5/branch_2/Conv2d_0b_3x3/bn"
  top: "block35_5/branch_2/Conv2d_0c_3x3"
  param {
    lr_mult: 1
    decay_mult: 1
  }
  convolution_param {
    num_output: 64
    bias_term: false
    pad: 1
    kernel_size: 3
    stride: 1
    weight_filler {
      type: "msra"
    }
  }
}
layer {
  name: "block35_5/branch_2/Conv2d_0c_3x3/bn"
  type: "BNData"
  bottom: "block35_5/branch_2/Conv2d_0c_3x3"
  top: "block35_5/branch_2/Conv2d_0c_3x3/bn"
  param {
    lr_mult: 1
    decay_mult: 0
  }
  param {
    lr_mult: 1
    decay_mult: 0
  }
  param {
    lr_mult: 0
    decay_mult: 0
  }
  param {
    lr_mult: 0
    decay_mult: 0
  }
  bn_param {
    scale_filler {
      type: "constant"
      value: 1
    }
    shift_filler {
      type: "constant"
      value: 0
    }
    decay: 0.05
    moving_average: true
  }
}
layer {
  name: "block35_5/branch_2/Conv2d_0c_3x3/bn/relu"
  type: "ReLU"
  bottom: "block35_5/branch_2/Conv2d_0c_3x3/bn"
  top: "block35_5/branch_2/Conv2d_0c_3x3/bn"
}
layer {
  name: "block35_5/concat"
  type: "Concat"
  bottom: "block35_5/branch_0/Conv2d_1x1/bn"
  bottom: "block35_5/branch_1/Conv2d_0b_3x3/bn"
  bottom: "block35_5/branch_2/Conv2d_0c_3x3/bn"
  top: "block35_5/concat"
  concat_param {
    axis: 1
  }
}
layer {
  name: "block35_5/concat/Conv2d_1x1"
  type: "ConvolutionData"
  bottom: "block35_5/concat"
  top: "block35_5/concat/Conv2d_1x1"
  param {
    lr_mult: 1
    decay_mult: 1
  }
  param {
    lr_mult: 2
    decay_mult: 0
  }
  convolution_param {
    num_output: 320
    bias_term: true
    pad: 0
    kernel_size: 1
    stride: 1
    weight_filler {
      type: "msra"
    }
    bias_filler {
      type: "constant"
      value: 0.2
    }
  }
}
layer {
  name: "block35_5/eltwise"
  type: "Eltwise"
  bottom: "block35_4/eltwise"
  bottom: "block35_5/concat/Conv2d_1x1"
  top: "block35_5/eltwise"
  eltwise_param {
    operation: SUM
    coeff: 1
    coeff: 0.17
  }
}
layer {
  name: "block35_5/eltwise/relu"
  type: "ReLU"
  bottom: "block35_5/eltwise"
  top: "block35_5/eltwise"
}
layer {
  name: "block35_6/branch_0/Conv2d_1x1"
  type: "ConvolutionData"
  bottom: "block35_5/eltwise"
  top: "block35_6/branch_0/Conv2d_1x1"
  param {
    lr_mult: 1
    decay_mult: 1
  }
  convolution_param {
    num_output: 32
    bias_term: false
    pad: 0
    kernel_size: 1
    stride: 1
    weight_filler {
      type: "msra"
    }
  }
}
layer {
  name: "block35_6/branch_0/Conv2d_1x1/bn"
  type: "BNData"
  bottom: "block35_6/branch_0/Conv2d_1x1"
  top: "block35_6/branch_0/Conv2d_1x1/bn"
  param {
    lr_mult: 1
    decay_mult: 0
  }
  param {
    lr_mult: 1
    decay_mult: 0
  }
  param {
    lr_mult: 0
    decay_mult: 0
  }
  param {
    lr_mult: 0
    decay_mult: 0
  }
  bn_param {
    scale_filler {
      type: "constant"
      value: 1
    }
    shift_filler {
      type: "constant"
      value: 0
    }
    decay: 0.05
    moving_average: true
  }
}
layer {
  name: "block35_6/branch_0/Conv2d_1x1/bn/relu"
  type: "ReLU"
  bottom: "block35_6/branch_0/Conv2d_1x1/bn"
  top: "block35_6/branch_0/Conv2d_1x1/bn"
}
layer {
  name: "block35_6/branch_1/Conv2d_0a_1x1"
  type: "ConvolutionData"
  bottom: "block35_5/eltwise"
  top: "block35_6/branch_1/Conv2d_0a_1x1"
  param {
    lr_mult: 1
    decay_mult: 1
  }
  convolution_param {
    num_output: 32
    bias_term: false
    pad: 0
    kernel_size: 1
    stride: 1
    weight_filler {
      type: "msra"
    }
  }
}
layer {
  name: "block35_6/branch_1/Conv2d_0a_1x1/bn"
  type: "BNData"
  bottom: "block35_6/branch_1/Conv2d_0a_1x1"
  top: "block35_6/branch_1/Conv2d_0a_1x1/bn"
  param {
    lr_mult: 1
    decay_mult: 0
  }
  param {
    lr_mult: 1
    decay_mult: 0
  }
  param {
    lr_mult: 0
    decay_mult: 0
  }
  param {
    lr_mult: 0
    decay_mult: 0
  }
  bn_param {
    scale_filler {
      type: "constant"
      value: 1
    }
    shift_filler {
      type: "constant"
      value: 0
    }
    decay: 0.05
    moving_average: true
  }
}
layer {
  name: "block35_6/branch_1/Conv2d_0a_1x1/bn/relu"
  type: "ReLU"
  bottom: "block35_6/branch_1/Conv2d_0a_1x1/bn"
  top: "block35_6/branch_1/Conv2d_0a_1x1/bn"
}
layer {
  name: "block35_6/branch_1/Conv2d_0b_3x3"
  type: "ConvolutionData"
  bottom: "block35_6/branch_1/Conv2d_0a_1x1/bn"
  top: "block35_6/branch_1/Conv2d_0b_3x3"
  param {
    lr_mult: 1
    decay_mult: 1
  }
  convolution_param {
    num_output: 32
    bias_term: false
    pad: 1
    kernel_size: 3
    stride: 1
    weight_filler {
      type: "msra"
    }
  }
}
layer {
  name: "block35_6/branch_1/Conv2d_0b_3x3/bn"
  type: "BNData"
  bottom: "block35_6/branch_1/Conv2d_0b_3x3"
  top: "block35_6/branch_1/Conv2d_0b_3x3/bn"
  param {
    lr_mult: 1
    decay_mult: 0
  }
  param {
    lr_mult: 1
    decay_mult: 0
  }
  param {
    lr_mult: 0
    decay_mult: 0
  }
  param {
    lr_mult: 0
    decay_mult: 0
  }
  bn_param {
    scale_filler {
      type: "constant"
      value: 1
    }
    shift_filler {
      type: "constant"
      value: 0
    }
    decay: 0.05
    moving_average: true
  }
}
layer {
  name: "block35_6/branch_1/Conv2d_0b_3x3/bn/relu"
  type: "ReLU"
  bottom: "block35_6/branch_1/Conv2d_0b_3x3/bn"
  top: "block35_6/branch_1/Conv2d_0b_3x3/bn"
}
layer {
  name: "block35_6/branch_2/Conv2d_0a_1x1"
  type: "ConvolutionData"
  bottom: "block35_5/eltwise"
  top: "block35_6/branch_2/Conv2d_0a_1x1"
  param {
    lr_mult: 1
    decay_mult: 1
  }
  convolution_param {
    num_output: 32
    bias_term: false
    pad: 0
    kernel_size: 1
    stride: 1
    weight_filler {
      type: "msra"
    }
  }
}
layer {
  name: "block35_6/branch_2/Conv2d_0a_1x1/bn"
  type: "BNData"
  bottom: "block35_6/branch_2/Conv2d_0a_1x1"
  top: "block35_6/branch_2/Conv2d_0a_1x1/bn"
  param {
    lr_mult: 1
    decay_mult: 0
  }
  param {
    lr_mult: 1
    decay_mult: 0
  }
  param {
    lr_mult: 0
    decay_mult: 0
  }
  param {
    lr_mult: 0
    decay_mult: 0
  }
  bn_param {
    scale_filler {
      type: "constant"
      value: 1
    }
    shift_filler {
      type: "constant"
      value: 0
    }
    decay: 0.05
    moving_average: true
  }
}
layer {
  name: "block35_6/branch_2/Conv2d_0a_1x1/bn/relu"
  type: "ReLU"
  bottom: "block35_6/branch_2/Conv2d_0a_1x1/bn"
  top: "block35_6/branch_2/Conv2d_0a_1x1/bn"
}
layer {
  name: "block35_6/branch_2/Conv2d_0b_3x3"
  type: "ConvolutionData"
  bottom: "block35_6/branch_2/Conv2d_0a_1x1/bn"
  top: "block35_6/branch_2/Conv2d_0b_3x3"
  param {
    lr_mult: 1
    decay_mult: 1
  }
  convolution_param {
    num_output: 48
    bias_term: false
    pad: 1
    kernel_size: 3
    stride: 1
    weight_filler {
      type: "msra"
    }
  }
}
layer {
  name: "block35_6/branch_2/Conv2d_0b_3x3/bn"
  type: "BNData"
  bottom: "block35_6/branch_2/Conv2d_0b_3x3"
  top: "block35_6/branch_2/Conv2d_0b_3x3/bn"
  param {
    lr_mult: 1
    decay_mult: 0
  }
  param {
    lr_mult: 1
    decay_mult: 0
  }
  param {
    lr_mult: 0
    decay_mult: 0
  }
  param {
    lr_mult: 0
    decay_mult: 0
  }
  bn_param {
    scale_filler {
      type: "constant"
      value: 1
    }
    shift_filler {
      type: "constant"
      value: 0
    }
    decay: 0.05
    moving_average: true
  }
}
layer {
  name: "block35_6/branch_2/Conv2d_0b_3x3/bn/relu"
  type: "ReLU"
  bottom: "block35_6/branch_2/Conv2d_0b_3x3/bn"
  top: "block35_6/branch_2/Conv2d_0b_3x3/bn"
}
layer {
  name: "block35_6/branch_2/Conv2d_0c_3x3"
  type: "ConvolutionData"
  bottom: "block35_6/branch_2/Conv2d_0b_3x3/bn"
  top: "block35_6/branch_2/Conv2d_0c_3x3"
  param {
    lr_mult: 1
    decay_mult: 1
  }
  convolution_param {
    num_output: 64
    bias_term: false
    pad: 1
    kernel_size: 3
    stride: 1
    weight_filler {
      type: "msra"
    }
  }
}
layer {
  name: "block35_6/branch_2/Conv2d_0c_3x3/bn"
  type: "BNData"
  bottom: "block35_6/branch_2/Conv2d_0c_3x3"
  top: "block35_6/branch_2/Conv2d_0c_3x3/bn"
  param {
    lr_mult: 1
    decay_mult: 0
  }
  param {
    lr_mult: 1
    decay_mult: 0
  }
  param {
    lr_mult: 0
    decay_mult: 0
  }
  param {
    lr_mult: 0
    decay_mult: 0
  }
  bn_param {
    scale_filler {
      type: "constant"
      value: 1
    }
    shift_filler {
      type: "constant"
      value: 0
    }
    decay: 0.05
    moving_average: true
  }
}
layer {
  name: "block35_6/branch_2/Conv2d_0c_3x3/bn/relu"
  type: "ReLU"
  bottom: "block35_6/branch_2/Conv2d_0c_3x3/bn"
  top: "block35_6/branch_2/Conv2d_0c_3x3/bn"
}
layer {
  name: "block35_6/concat"
  type: "Concat"
  bottom: "block35_6/branch_0/Conv2d_1x1/bn"
  bottom: "block35_6/branch_1/Conv2d_0b_3x3/bn"
  bottom: "block35_6/branch_2/Conv2d_0c_3x3/bn"
  top: "block35_6/concat"
  concat_param {
    axis: 1
  }
}
layer {
  name: "block35_6/concat/Conv2d_1x1"
  type: "ConvolutionData"
  bottom: "block35_6/concat"
  top: "block35_6/concat/Conv2d_1x1"
  param {
    lr_mult: 1
    decay_mult: 1
  }
  param {
    lr_mult: 2
    decay_mult: 0
  }
  convolution_param {
    num_output: 320
    bias_term: true
    pad: 0
    kernel_size: 1
    stride: 1
    weight_filler {
      type: "msra"
    }
    bias_filler {
      type: "constant"
      value: 0.2
    }
  }
}
layer {
  name: "block35_6/eltwise"
  type: "Eltwise"
  bottom: "block35_5/eltwise"
  bottom: "block35_6/concat/Conv2d_1x1"
  top: "block35_6/eltwise"
  eltwise_param {
    operation: SUM
    coeff: 1
    coeff: 0.17
  }
}
layer {
  name: "block35_6/eltwise/relu"
  type: "ReLU"
  bottom: "block35_6/eltwise"
  top: "block35_6/eltwise"
}
layer {
  name: "block35_7/branch_0/Conv2d_1x1"
  type: "ConvolutionData"
  bottom: "block35_6/eltwise"
  top: "block35_7/branch_0/Conv2d_1x1"
  param {
    lr_mult: 1
    decay_mult: 1
  }
  convolution_param {
    num_output: 32
    bias_term: false
    pad: 0
    kernel_size: 1
    stride: 1
    weight_filler {
      type: "msra"
    }
  }
}
layer {
  name: "block35_7/branch_0/Conv2d_1x1/bn"
  type: "BNData"
  bottom: "block35_7/branch_0/Conv2d_1x1"
  top: "block35_7/branch_0/Conv2d_1x1/bn"
  param {
    lr_mult: 1
    decay_mult: 0
  }
  param {
    lr_mult: 1
    decay_mult: 0
  }
  param {
    lr_mult: 0
    decay_mult: 0
  }
  param {
    lr_mult: 0
    decay_mult: 0
  }
  bn_param {
    scale_filler {
      type: "constant"
      value: 1
    }
    shift_filler {
      type: "constant"
      value: 0
    }
    decay: 0.05
    moving_average: true
  }
}
layer {
  name: "block35_7/branch_0/Conv2d_1x1/bn/relu"
  type: "ReLU"
  bottom: "block35_7/branch_0/Conv2d_1x1/bn"
  top: "block35_7/branch_0/Conv2d_1x1/bn"
}
layer {
  name: "block35_7/branch_1/Conv2d_0a_1x1"
  type: "ConvolutionData"
  bottom: "block35_6/eltwise"
  top: "block35_7/branch_1/Conv2d_0a_1x1"
  param {
    lr_mult: 1
    decay_mult: 1
  }
  convolution_param {
    num_output: 32
    bias_term: false
    pad: 0
    kernel_size: 1
    stride: 1
    weight_filler {
      type: "msra"
    }
  }
}
layer {
  name: "block35_7/branch_1/Conv2d_0a_1x1/bn"
  type: "BNData"
  bottom: "block35_7/branch_1/Conv2d_0a_1x1"
  top: "block35_7/branch_1/Conv2d_0a_1x1/bn"
  param {
    lr_mult: 1
    decay_mult: 0
  }
  param {
    lr_mult: 1
    decay_mult: 0
  }
  param {
    lr_mult: 0
    decay_mult: 0
  }
  param {
    lr_mult: 0
    decay_mult: 0
  }
  bn_param {
    scale_filler {
      type: "constant"
      value: 1
    }
    shift_filler {
      type: "constant"
      value: 0
    }
    decay: 0.05
    moving_average: true
  }
}
layer {
  name: "block35_7/branch_1/Conv2d_0a_1x1/bn/relu"
  type: "ReLU"
  bottom: "block35_7/branch_1/Conv2d_0a_1x1/bn"
  top: "block35_7/branch_1/Conv2d_0a_1x1/bn"
}
layer {
  name: "block35_7/branch_1/Conv2d_0b_3x3"
  type: "ConvolutionData"
  bottom: "block35_7/branch_1/Conv2d_0a_1x1/bn"
  top: "block35_7/branch_1/Conv2d_0b_3x3"
  param {
    lr_mult: 1
    decay_mult: 1
  }
  convolution_param {
    num_output: 32
    bias_term: false
    pad: 1
    kernel_size: 3
    stride: 1
    weight_filler {
      type: "msra"
    }
  }
}
layer {
  name: "block35_7/branch_1/Conv2d_0b_3x3/bn"
  type: "BNData"
  bottom: "block35_7/branch_1/Conv2d_0b_3x3"
  top: "block35_7/branch_1/Conv2d_0b_3x3/bn"
  param {
    lr_mult: 1
    decay_mult: 0
  }
  param {
    lr_mult: 1
    decay_mult: 0
  }
  param {
    lr_mult: 0
    decay_mult: 0
  }
  param {
    lr_mult: 0
    decay_mult: 0
  }
  bn_param {
    scale_filler {
      type: "constant"
      value: 1
    }
    shift_filler {
      type: "constant"
      value: 0
    }
    decay: 0.05
    moving_average: true
  }
}
layer {
  name: "block35_7/branch_1/Conv2d_0b_3x3/bn/relu"
  type: "ReLU"
  bottom: "block35_7/branch_1/Conv2d_0b_3x3/bn"
  top: "block35_7/branch_1/Conv2d_0b_3x3/bn"
}
layer {
  name: "block35_7/branch_2/Conv2d_0a_1x1"
  type: "ConvolutionData"
  bottom: "block35_6/eltwise"
  top: "block35_7/branch_2/Conv2d_0a_1x1"
  param {
    lr_mult: 1
    decay_mult: 1
  }
  convolution_param {
    num_output: 32
    bias_term: false
    pad: 0
    kernel_size: 1
    stride: 1
    weight_filler {
      type: "msra"
    }
  }
}
layer {
  name: "block35_7/branch_2/Conv2d_0a_1x1/bn"
  type: "BNData"
  bottom: "block35_7/branch_2/Conv2d_0a_1x1"
  top: "block35_7/branch_2/Conv2d_0a_1x1/bn"
  param {
    lr_mult: 1
    decay_mult: 0
  }
  param {
    lr_mult: 1
    decay_mult: 0
  }
  param {
    lr_mult: 0
    decay_mult: 0
  }
  param {
    lr_mult: 0
    decay_mult: 0
  }
  bn_param {
    scale_filler {
      type: "constant"
      value: 1
    }
    shift_filler {
      type: "constant"
      value: 0
    }
    decay: 0.05
    moving_average: true
  }
}
layer {
  name: "block35_7/branch_2/Conv2d_0a_1x1/bn/relu"
  type: "ReLU"
  bottom: "block35_7/branch_2/Conv2d_0a_1x1/bn"
  top: "block35_7/branch_2/Conv2d_0a_1x1/bn"
}
layer {
  name: "block35_7/branch_2/Conv2d_0b_3x3"
  type: "ConvolutionData"
  bottom: "block35_7/branch_2/Conv2d_0a_1x1/bn"
  top: "block35_7/branch_2/Conv2d_0b_3x3"
  param {
    lr_mult: 1
    decay_mult: 1
  }
  convolution_param {
    num_output: 48
    bias_term: false
    pad: 1
    kernel_size: 3
    stride: 1
    weight_filler {
      type: "msra"
    }
  }
}
layer {
  name: "block35_7/branch_2/Conv2d_0b_3x3/bn"
  type: "BNData"
  bottom: "block35_7/branch_2/Conv2d_0b_3x3"
  top: "block35_7/branch_2/Conv2d_0b_3x3/bn"
  param {
    lr_mult: 1
    decay_mult: 0
  }
  param {
    lr_mult: 1
    decay_mult: 0
  }
  param {
    lr_mult: 0
    decay_mult: 0
  }
  param {
    lr_mult: 0
    decay_mult: 0
  }
  bn_param {
    scale_filler {
      type: "constant"
      value: 1
    }
    shift_filler {
      type: "constant"
      value: 0
    }
    decay: 0.05
    moving_average: true
  }
}
layer {
  name: "block35_7/branch_2/Conv2d_0b_3x3/bn/relu"
  type: "ReLU"
  bottom: "block35_7/branch_2/Conv2d_0b_3x3/bn"
  top: "block35_7/branch_2/Conv2d_0b_3x3/bn"
}
layer {
  name: "block35_7/branch_2/Conv2d_0c_3x3"
  type: "ConvolutionData"
  bottom: "block35_7/branch_2/Conv2d_0b_3x3/bn"
  top: "block35_7/branch_2/Conv2d_0c_3x3"
  param {
    lr_mult: 1
    decay_mult: 1
  }
  convolution_param {
    num_output: 64
    bias_term: false
    pad: 1
    kernel_size: 3
    stride: 1
    weight_filler {
      type: "msra"
    }
  }
}
layer {
  name: "block35_7/branch_2/Conv2d_0c_3x3/bn"
  type: "BNData"
  bottom: "block35_7/branch_2/Conv2d_0c_3x3"
  top: "block35_7/branch_2/Conv2d_0c_3x3/bn"
  param {
    lr_mult: 1
    decay_mult: 0
  }
  param {
    lr_mult: 1
    decay_mult: 0
  }
  param {
    lr_mult: 0
    decay_mult: 0
  }
  param {
    lr_mult: 0
    decay_mult: 0
  }
  bn_param {
    scale_filler {
      type: "constant"
      value: 1
    }
    shift_filler {
      type: "constant"
      value: 0
    }
    decay: 0.05
    moving_average: true
  }
}
layer {
  name: "block35_7/branch_2/Conv2d_0c_3x3/bn/relu"
  type: "ReLU"
  bottom: "block35_7/branch_2/Conv2d_0c_3x3/bn"
  top: "block35_7/branch_2/Conv2d_0c_3x3/bn"
}
layer {
  name: "block35_7/concat"
  type: "Concat"
  bottom: "block35_7/branch_0/Conv2d_1x1/bn"
  bottom: "block35_7/branch_1/Conv2d_0b_3x3/bn"
  bottom: "block35_7/branch_2/Conv2d_0c_3x3/bn"
  top: "block35_7/concat"
  concat_param {
    axis: 1
  }
}
layer {
  name: "block35_7/concat/Conv2d_1x1"
  type: "ConvolutionData"
  bottom: "block35_7/concat"
  top: "block35_7/concat/Conv2d_1x1"
  param {
    lr_mult: 1
    decay_mult: 1
  }
  param {
    lr_mult: 2
    decay_mult: 0
  }
  convolution_param {
    num_output: 320
    bias_term: true
    pad: 0
    kernel_size: 1
    stride: 1
    weight_filler {
      type: "msra"
    }
    bias_filler {
      type: "constant"
      value: 0.2
    }
  }
}
layer {
  name: "block35_7/eltwise"
  type: "Eltwise"
  bottom: "block35_6/eltwise"
  bottom: "block35_7/concat/Conv2d_1x1"
  top: "block35_7/eltwise"
  eltwise_param {
    operation: SUM
    coeff: 1
    coeff: 0.17
  }
}
layer {
  name: "block35_7/eltwise/relu"
  type: "ReLU"
  bottom: "block35_7/eltwise"
  top: "block35_7/eltwise"
}
layer {
  name: "block35_8/branch_0/Conv2d_1x1"
  type: "ConvolutionData"
  bottom: "block35_7/eltwise"
  top: "block35_8/branch_0/Conv2d_1x1"
  param {
    lr_mult: 1
    decay_mult: 1
  }
  convolution_param {
    num_output: 32
    bias_term: false
    pad: 0
    kernel_size: 1
    stride: 1
    weight_filler {
      type: "msra"
    }
  }
}
layer {
  name: "block35_8/branch_0/Conv2d_1x1/bn"
  type: "BNData"
  bottom: "block35_8/branch_0/Conv2d_1x1"
  top: "block35_8/branch_0/Conv2d_1x1/bn"
  param {
    lr_mult: 1
    decay_mult: 0
  }
  param {
    lr_mult: 1
    decay_mult: 0
  }
  param {
    lr_mult: 0
    decay_mult: 0
  }
  param {
    lr_mult: 0
    decay_mult: 0
  }
  bn_param {
    scale_filler {
      type: "constant"
      value: 1
    }
    shift_filler {
      type: "constant"
      value: 0
    }
    decay: 0.05
    moving_average: true
  }
}
layer {
  name: "block35_8/branch_0/Conv2d_1x1/bn/relu"
  type: "ReLU"
  bottom: "block35_8/branch_0/Conv2d_1x1/bn"
  top: "block35_8/branch_0/Conv2d_1x1/bn"
}
layer {
  name: "block35_8/branch_1/Conv2d_0a_1x1"
  type: "ConvolutionData"
  bottom: "block35_7/eltwise"
  top: "block35_8/branch_1/Conv2d_0a_1x1"
  param {
    lr_mult: 1
    decay_mult: 1
  }
  convolution_param {
    num_output: 32
    bias_term: false
    pad: 0
    kernel_size: 1
    stride: 1
    weight_filler {
      type: "msra"
    }
  }
}
layer {
  name: "block35_8/branch_1/Conv2d_0a_1x1/bn"
  type: "BNData"
  bottom: "block35_8/branch_1/Conv2d_0a_1x1"
  top: "block35_8/branch_1/Conv2d_0a_1x1/bn"
  param {
    lr_mult: 1
    decay_mult: 0
  }
  param {
    lr_mult: 1
    decay_mult: 0
  }
  param {
    lr_mult: 0
    decay_mult: 0
  }
  param {
    lr_mult: 0
    decay_mult: 0
  }
  bn_param {
    scale_filler {
      type: "constant"
      value: 1
    }
    shift_filler {
      type: "constant"
      value: 0
    }
    decay: 0.05
    moving_average: true
  }
}
layer {
  name: "block35_8/branch_1/Conv2d_0a_1x1/bn/relu"
  type: "ReLU"
  bottom: "block35_8/branch_1/Conv2d_0a_1x1/bn"
  top: "block35_8/branch_1/Conv2d_0a_1x1/bn"
}
layer {
  name: "block35_8/branch_1/Conv2d_0b_3x3"
  type: "ConvolutionData"
  bottom: "block35_8/branch_1/Conv2d_0a_1x1/bn"
  top: "block35_8/branch_1/Conv2d_0b_3x3"
  param {
    lr_mult: 1
    decay_mult: 1
  }
  convolution_param {
    num_output: 32
    bias_term: false
    pad: 1
    kernel_size: 3
    stride: 1
    weight_filler {
      type: "msra"
    }
  }
}
layer {
  name: "block35_8/branch_1/Conv2d_0b_3x3/bn"
  type: "BNData"
  bottom: "block35_8/branch_1/Conv2d_0b_3x3"
  top: "block35_8/branch_1/Conv2d_0b_3x3/bn"
  param {
    lr_mult: 1
    decay_mult: 0
  }
  param {
    lr_mult: 1
    decay_mult: 0
  }
  param {
    lr_mult: 0
    decay_mult: 0
  }
  param {
    lr_mult: 0
    decay_mult: 0
  }
  bn_param {
    scale_filler {
      type: "constant"
      value: 1
    }
    shift_filler {
      type: "constant"
      value: 0
    }
    decay: 0.05
    moving_average: true
  }
}
layer {
  name: "block35_8/branch_1/Conv2d_0b_3x3/bn/relu"
  type: "ReLU"
  bottom: "block35_8/branch_1/Conv2d_0b_3x3/bn"
  top: "block35_8/branch_1/Conv2d_0b_3x3/bn"
}
layer {
  name: "block35_8/branch_2/Conv2d_0a_1x1"
  type: "ConvolutionData"
  bottom: "block35_7/eltwise"
  top: "block35_8/branch_2/Conv2d_0a_1x1"
  param {
    lr_mult: 1
    decay_mult: 1
  }
  convolution_param {
    num_output: 32
    bias_term: false
    pad: 0
    kernel_size: 1
    stride: 1
    weight_filler {
      type: "msra"
    }
  }
}
layer {
  name: "block35_8/branch_2/Conv2d_0a_1x1/bn"
  type: "BNData"
  bottom: "block35_8/branch_2/Conv2d_0a_1x1"
  top: "block35_8/branch_2/Conv2d_0a_1x1/bn"
  param {
    lr_mult: 1
    decay_mult: 0
  }
  param {
    lr_mult: 1
    decay_mult: 0
  }
  param {
    lr_mult: 0
    decay_mult: 0
  }
  param {
    lr_mult: 0
    decay_mult: 0
  }
  bn_param {
    scale_filler {
      type: "constant"
      value: 1
    }
    shift_filler {
      type: "constant"
      value: 0
    }
    decay: 0.05
    moving_average: true
  }
}
layer {
  name: "block35_8/branch_2/Conv2d_0a_1x1/bn/relu"
  type: "ReLU"
  bottom: "block35_8/branch_2/Conv2d_0a_1x1/bn"
  top: "block35_8/branch_2/Conv2d_0a_1x1/bn"
}
layer {
  name: "block35_8/branch_2/Conv2d_0b_3x3"
  type: "ConvolutionData"
  bottom: "block35_8/branch_2/Conv2d_0a_1x1/bn"
  top: "block35_8/branch_2/Conv2d_0b_3x3"
  param {
    lr_mult: 1
    decay_mult: 1
  }
  convolution_param {
    num_output: 48
    bias_term: false
    pad: 1
    kernel_size: 3
    stride: 1
    weight_filler {
      type: "msra"
    }
  }
}
layer {
  name: "block35_8/branch_2/Conv2d_0b_3x3/bn"
  type: "BNData"
  bottom: "block35_8/branch_2/Conv2d_0b_3x3"
  top: "block35_8/branch_2/Conv2d_0b_3x3/bn"
  param {
    lr_mult: 1
    decay_mult: 0
  }
  param {
    lr_mult: 1
    decay_mult: 0
  }
  param {
    lr_mult: 0
    decay_mult: 0
  }
  param {
    lr_mult: 0
    decay_mult: 0
  }
  bn_param {
    scale_filler {
      type: "constant"
      value: 1
    }
    shift_filler {
      type: "constant"
      value: 0
    }
    decay: 0.05
    moving_average: true
  }
}
layer {
  name: "block35_8/branch_2/Conv2d_0b_3x3/bn/relu"
  type: "ReLU"
  bottom: "block35_8/branch_2/Conv2d_0b_3x3/bn"
  top: "block35_8/branch_2/Conv2d_0b_3x3/bn"
}
layer {
  name: "block35_8/branch_2/Conv2d_0c_3x3"
  type: "ConvolutionData"
  bottom: "block35_8/branch_2/Conv2d_0b_3x3/bn"
  top: "block35_8/branch_2/Conv2d_0c_3x3"
  param {
    lr_mult: 1
    decay_mult: 1
  }
  convolution_param {
    num_output: 64
    bias_term: false
    pad: 1
    kernel_size: 3
    stride: 1
    weight_filler {
      type: "msra"
    }
  }
}
layer {
  name: "block35_8/branch_2/Conv2d_0c_3x3/bn"
  type: "BNData"
  bottom: "block35_8/branch_2/Conv2d_0c_3x3"
  top: "block35_8/branch_2/Conv2d_0c_3x3/bn"
  param {
    lr_mult: 1
    decay_mult: 0
  }
  param {
    lr_mult: 1
    decay_mult: 0
  }
  param {
    lr_mult: 0
    decay_mult: 0
  }
  param {
    lr_mult: 0
    decay_mult: 0
  }
  bn_param {
    scale_filler {
      type: "constant"
      value: 1
    }
    shift_filler {
      type: "constant"
      value: 0
    }
    decay: 0.05
    moving_average: true
  }
}
layer {
  name: "block35_8/branch_2/Conv2d_0c_3x3/bn/relu"
  type: "ReLU"
  bottom: "block35_8/branch_2/Conv2d_0c_3x3/bn"
  top: "block35_8/branch_2/Conv2d_0c_3x3/bn"
}
layer {
  name: "block35_8/concat"
  type: "Concat"
  bottom: "block35_8/branch_0/Conv2d_1x1/bn"
  bottom: "block35_8/branch_1/Conv2d_0b_3x3/bn"
  bottom: "block35_8/branch_2/Conv2d_0c_3x3/bn"
  top: "block35_8/concat"
  concat_param {
    axis: 1
  }
}
layer {
  name: "block35_8/concat/Conv2d_1x1"
  type: "ConvolutionData"
  bottom: "block35_8/concat"
  top: "block35_8/concat/Conv2d_1x1"
  param {
    lr_mult: 1
    decay_mult: 1
  }
  param {
    lr_mult: 2
    decay_mult: 0
  }
  convolution_param {
    num_output: 320
    bias_term: true
    pad: 0
    kernel_size: 1
    stride: 1
    weight_filler {
      type: "msra"
    }
    bias_filler {
      type: "constant"
      value: 0.2
    }
  }
}
layer {
  name: "block35_8/eltwise"
  type: "Eltwise"
  bottom: "block35_7/eltwise"
  bottom: "block35_8/concat/Conv2d_1x1"
  top: "block35_8/eltwise"
  eltwise_param {
    operation: SUM
    coeff: 1
    coeff: 0.17
  }
}
layer {
  name: "block35_8/eltwise/relu"
  type: "ReLU"
  bottom: "block35_8/eltwise"
  top: "block35_8/eltwise"
}
layer {
  name: "block35_9/branch_0/Conv2d_1x1"
  type: "ConvolutionData"
  bottom: "block35_8/eltwise"
  top: "block35_9/branch_0/Conv2d_1x1"
  param {
    lr_mult: 1
    decay_mult: 1
  }
  convolution_param {
    num_output: 32
    bias_term: false
    pad: 0
    kernel_size: 1
    stride: 1
    weight_filler {
      type: "msra"
    }
  }
}
layer {
  name: "block35_9/branch_0/Conv2d_1x1/bn"
  type: "BNData"
  bottom: "block35_9/branch_0/Conv2d_1x1"
  top: "block35_9/branch_0/Conv2d_1x1/bn"
  param {
    lr_mult: 1
    decay_mult: 0
  }
  param {
    lr_mult: 1
    decay_mult: 0
  }
  param {
    lr_mult: 0
    decay_mult: 0
  }
  param {
    lr_mult: 0
    decay_mult: 0
  }
  bn_param {
    scale_filler {
      type: "constant"
      value: 1
    }
    shift_filler {
      type: "constant"
      value: 0
    }
    decay: 0.05
    moving_average: true
  }
}
layer {
  name: "block35_9/branch_0/Conv2d_1x1/bn/relu"
  type: "ReLU"
  bottom: "block35_9/branch_0/Conv2d_1x1/bn"
  top: "block35_9/branch_0/Conv2d_1x1/bn"
}
layer {
  name: "block35_9/branch_1/Conv2d_0a_1x1"
  type: "ConvolutionData"
  bottom: "block35_8/eltwise"
  top: "block35_9/branch_1/Conv2d_0a_1x1"
  param {
    lr_mult: 1
    decay_mult: 1
  }
  convolution_param {
    num_output: 32
    bias_term: false
    pad: 0
    kernel_size: 1
    stride: 1
    weight_filler {
      type: "msra"
    }
  }
}
layer {
  name: "block35_9/branch_1/Conv2d_0a_1x1/bn"
  type: "BNData"
  bottom: "block35_9/branch_1/Conv2d_0a_1x1"
  top: "block35_9/branch_1/Conv2d_0a_1x1/bn"
  param {
    lr_mult: 1
    decay_mult: 0
  }
  param {
    lr_mult: 1
    decay_mult: 0
  }
  param {
    lr_mult: 0
    decay_mult: 0
  }
  param {
    lr_mult: 0
    decay_mult: 0
  }
  bn_param {
    scale_filler {
      type: "constant"
      value: 1
    }
    shift_filler {
      type: "constant"
      value: 0
    }
    decay: 0.05
    moving_average: true
  }
}
layer {
  name: "block35_9/branch_1/Conv2d_0a_1x1/bn/relu"
  type: "ReLU"
  bottom: "block35_9/branch_1/Conv2d_0a_1x1/bn"
  top: "block35_9/branch_1/Conv2d_0a_1x1/bn"
}
layer {
  name: "block35_9/branch_1/Conv2d_0b_3x3"
  type: "ConvolutionData"
  bottom: "block35_9/branch_1/Conv2d_0a_1x1/bn"
  top: "block35_9/branch_1/Conv2d_0b_3x3"
  param {
    lr_mult: 1
    decay_mult: 1
  }
  convolution_param {
    num_output: 32
    bias_term: false
    pad: 1
    kernel_size: 3
    stride: 1
    weight_filler {
      type: "msra"
    }
  }
}
layer {
  name: "block35_9/branch_1/Conv2d_0b_3x3/bn"
  type: "BNData"
  bottom: "block35_9/branch_1/Conv2d_0b_3x3"
  top: "block35_9/branch_1/Conv2d_0b_3x3/bn"
  param {
    lr_mult: 1
    decay_mult: 0
  }
  param {
    lr_mult: 1
    decay_mult: 0
  }
  param {
    lr_mult: 0
    decay_mult: 0
  }
  param {
    lr_mult: 0
    decay_mult: 0
  }
  bn_param {
    scale_filler {
      type: "constant"
      value: 1
    }
    shift_filler {
      type: "constant"
      value: 0
    }
    decay: 0.05
    moving_average: true
  }
}
layer {
  name: "block35_9/branch_1/Conv2d_0b_3x3/bn/relu"
  type: "ReLU"
  bottom: "block35_9/branch_1/Conv2d_0b_3x3/bn"
  top: "block35_9/branch_1/Conv2d_0b_3x3/bn"
}
layer {
  name: "block35_9/branch_2/Conv2d_0a_1x1"
  type: "ConvolutionData"
  bottom: "block35_8/eltwise"
  top: "block35_9/branch_2/Conv2d_0a_1x1"
  param {
    lr_mult: 1
    decay_mult: 1
  }
  convolution_param {
    num_output: 32
    bias_term: false
    pad: 0
    kernel_size: 1
    stride: 1
    weight_filler {
      type: "msra"
    }
  }
}
layer {
  name: "block35_9/branch_2/Conv2d_0a_1x1/bn"
  type: "BNData"
  bottom: "block35_9/branch_2/Conv2d_0a_1x1"
  top: "block35_9/branch_2/Conv2d_0a_1x1/bn"
  param {
    lr_mult: 1
    decay_mult: 0
  }
  param {
    lr_mult: 1
    decay_mult: 0
  }
  param {
    lr_mult: 0
    decay_mult: 0
  }
  param {
    lr_mult: 0
    decay_mult: 0
  }
  bn_param {
    scale_filler {
      type: "constant"
      value: 1
    }
    shift_filler {
      type: "constant"
      value: 0
    }
    decay: 0.05
    moving_average: true
  }
}
layer {
  name: "block35_9/branch_2/Conv2d_0a_1x1/bn/relu"
  type: "ReLU"
  bottom: "block35_9/branch_2/Conv2d_0a_1x1/bn"
  top: "block35_9/branch_2/Conv2d_0a_1x1/bn"
}
layer {
  name: "block35_9/branch_2/Conv2d_0b_3x3"
  type: "ConvolutionData"
  bottom: "block35_9/branch_2/Conv2d_0a_1x1/bn"
  top: "block35_9/branch_2/Conv2d_0b_3x3"
  param {
    lr_mult: 1
    decay_mult: 1
  }
  convolution_param {
    num_output: 48
    bias_term: false
    pad: 1
    kernel_size: 3
    stride: 1
    weight_filler {
      type: "msra"
    }
  }
}
layer {
  name: "block35_9/branch_2/Conv2d_0b_3x3/bn"
  type: "BNData"
  bottom: "block35_9/branch_2/Conv2d_0b_3x3"
  top: "block35_9/branch_2/Conv2d_0b_3x3/bn"
  param {
    lr_mult: 1
    decay_mult: 0
  }
  param {
    lr_mult: 1
    decay_mult: 0
  }
  param {
    lr_mult: 0
    decay_mult: 0
  }
  param {
    lr_mult: 0
    decay_mult: 0
  }
  bn_param {
    scale_filler {
      type: "constant"
      value: 1
    }
    shift_filler {
      type: "constant"
      value: 0
    }
    decay: 0.05
    moving_average: true
  }
}
layer {
  name: "block35_9/branch_2/Conv2d_0b_3x3/bn/relu"
  type: "ReLU"
  bottom: "block35_9/branch_2/Conv2d_0b_3x3/bn"
  top: "block35_9/branch_2/Conv2d_0b_3x3/bn"
}
layer {
  name: "block35_9/branch_2/Conv2d_0c_3x3"
  type: "ConvolutionData"
  bottom: "block35_9/branch_2/Conv2d_0b_3x3/bn"
  top: "block35_9/branch_2/Conv2d_0c_3x3"
  param {
    lr_mult: 1
    decay_mult: 1
  }
  convolution_param {
    num_output: 64
    bias_term: false
    pad: 1
    kernel_size: 3
    stride: 1
    weight_filler {
      type: "msra"
    }
  }
}
layer {
  name: "block35_9/branch_2/Conv2d_0c_3x3/bn"
  type: "BNData"
  bottom: "block35_9/branch_2/Conv2d_0c_3x3"
  top: "block35_9/branch_2/Conv2d_0c_3x3/bn"
  param {
    lr_mult: 1
    decay_mult: 0
  }
  param {
    lr_mult: 1
    decay_mult: 0
  }
  param {
    lr_mult: 0
    decay_mult: 0
  }
  param {
    lr_mult: 0
    decay_mult: 0
  }
  bn_param {
    scale_filler {
      type: "constant"
      value: 1
    }
    shift_filler {
      type: "constant"
      value: 0
    }
    decay: 0.05
    moving_average: true
  }
}
layer {
  name: "block35_9/branch_2/Conv2d_0c_3x3/bn/relu"
  type: "ReLU"
  bottom: "block35_9/branch_2/Conv2d_0c_3x3/bn"
  top: "block35_9/branch_2/Conv2d_0c_3x3/bn"
}
layer {
  name: "block35_9/concat"
  type: "Concat"
  bottom: "block35_9/branch_0/Conv2d_1x1/bn"
  bottom: "block35_9/branch_1/Conv2d_0b_3x3/bn"
  bottom: "block35_9/branch_2/Conv2d_0c_3x3/bn"
  top: "block35_9/concat"
  concat_param {
    axis: 1
  }
}
layer {
  name: "block35_9/concat/Conv2d_1x1"
  type: "ConvolutionData"
  bottom: "block35_9/concat"
  top: "block35_9/concat/Conv2d_1x1"
  param {
    lr_mult: 1
    decay_mult: 1
  }
  param {
    lr_mult: 2
    decay_mult: 0
  }
  convolution_param {
    num_output: 320
    bias_term: true
    pad: 0
    kernel_size: 1
    stride: 1
    weight_filler {
      type: "msra"
    }
    bias_filler {
      type: "constant"
      value: 0.2
    }
  }
}
layer {
  name: "block35_9/eltwise"
  type: "Eltwise"
  bottom: "block35_8/eltwise"
  bottom: "block35_9/concat/Conv2d_1x1"
  top: "block35_9/eltwise"
  eltwise_param {
    operation: SUM
    coeff: 1
    coeff: 0.17
  }
}
layer {
  name: "block35_9/eltwise/relu"
  type: "ReLU"
  bottom: "block35_9/eltwise"
  top: "block35_9/eltwise"
}
layer {
  name: "block35_10/branch_0/Conv2d_1x1"
  type: "ConvolutionData"
  bottom: "block35_9/eltwise"
  top: "block35_10/branch_0/Conv2d_1x1"
  param {
    lr_mult: 1
    decay_mult: 1
  }
  convolution_param {
    num_output: 32
    bias_term: false
    pad: 0
    kernel_size: 1
    stride: 1
    weight_filler {
      type: "msra"
    }
  }
}
layer {
  name: "block35_10/branch_0/Conv2d_1x1/bn"
  type: "BNData"
  bottom: "block35_10/branch_0/Conv2d_1x1"
  top: "block35_10/branch_0/Conv2d_1x1/bn"
  param {
    lr_mult: 1
    decay_mult: 0
  }
  param {
    lr_mult: 1
    decay_mult: 0
  }
  param {
    lr_mult: 0
    decay_mult: 0
  }
  param {
    lr_mult: 0
    decay_mult: 0
  }
  bn_param {
    scale_filler {
      type: "constant"
      value: 1
    }
    shift_filler {
      type: "constant"
      value: 0
    }
    decay: 0.05
    moving_average: true
  }
}
layer {
  name: "block35_10/branch_0/Conv2d_1x1/bn/relu"
  type: "ReLU"
  bottom: "block35_10/branch_0/Conv2d_1x1/bn"
  top: "block35_10/branch_0/Conv2d_1x1/bn"
}
layer {
  name: "block35_10/branch_1/Conv2d_0a_1x1"
  type: "ConvolutionData"
  bottom: "block35_9/eltwise"
  top: "block35_10/branch_1/Conv2d_0a_1x1"
  param {
    lr_mult: 1
    decay_mult: 1
  }
  convolution_param {
    num_output: 32
    bias_term: false
    pad: 0
    kernel_size: 1
    stride: 1
    weight_filler {
      type: "msra"
    }
  }
}
layer {
  name: "block35_10/branch_1/Conv2d_0a_1x1/bn"
  type: "BNData"
  bottom: "block35_10/branch_1/Conv2d_0a_1x1"
  top: "block35_10/branch_1/Conv2d_0a_1x1/bn"
  param {
    lr_mult: 1
    decay_mult: 0
  }
  param {
    lr_mult: 1
    decay_mult: 0
  }
  param {
    lr_mult: 0
    decay_mult: 0
  }
  param {
    lr_mult: 0
    decay_mult: 0
  }
  bn_param {
    scale_filler {
      type: "constant"
      value: 1
    }
    shift_filler {
      type: "constant"
      value: 0
    }
    decay: 0.05
    moving_average: true
  }
}
layer {
  name: "block35_10/branch_1/Conv2d_0a_1x1/bn/relu"
  type: "ReLU"
  bottom: "block35_10/branch_1/Conv2d_0a_1x1/bn"
  top: "block35_10/branch_1/Conv2d_0a_1x1/bn"
}
layer {
  name: "block35_10/branch_1/Conv2d_0b_3x3"
  type: "ConvolutionData"
  bottom: "block35_10/branch_1/Conv2d_0a_1x1/bn"
  top: "block35_10/branch_1/Conv2d_0b_3x3"
  param {
    lr_mult: 1
    decay_mult: 1
  }
  convolution_param {
    num_output: 32
    bias_term: false
    pad: 1
    kernel_size: 3
    stride: 1
    weight_filler {
      type: "msra"
    }
  }
}
layer {
  name: "block35_10/branch_1/Conv2d_0b_3x3/bn"
  type: "BNData"
  bottom: "block35_10/branch_1/Conv2d_0b_3x3"
  top: "block35_10/branch_1/Conv2d_0b_3x3/bn"
  param {
    lr_mult: 1
    decay_mult: 0
  }
  param {
    lr_mult: 1
    decay_mult: 0
  }
  param {
    lr_mult: 0
    decay_mult: 0
  }
  param {
    lr_mult: 0
    decay_mult: 0
  }
  bn_param {
    scale_filler {
      type: "constant"
      value: 1
    }
    shift_filler {
      type: "constant"
      value: 0
    }
    decay: 0.05
    moving_average: true
  }
}
layer {
  name: "block35_10/branch_1/Conv2d_0b_3x3/bn/relu"
  type: "ReLU"
  bottom: "block35_10/branch_1/Conv2d_0b_3x3/bn"
  top: "block35_10/branch_1/Conv2d_0b_3x3/bn"
}
layer {
  name: "block35_10/branch_2/Conv2d_0a_1x1"
  type: "ConvolutionData"
  bottom: "block35_9/eltwise"
  top: "block35_10/branch_2/Conv2d_0a_1x1"
  param {
    lr_mult: 1
    decay_mult: 1
  }
  convolution_param {
    num_output: 32
    bias_term: false
    pad: 0
    kernel_size: 1
    stride: 1
    weight_filler {
      type: "msra"
    }
  }
}
layer {
  name: "block35_10/branch_2/Conv2d_0a_1x1/bn"
  type: "BNData"
  bottom: "block35_10/branch_2/Conv2d_0a_1x1"
  top: "block35_10/branch_2/Conv2d_0a_1x1/bn"
  param {
    lr_mult: 1
    decay_mult: 0
  }
  param {
    lr_mult: 1
    decay_mult: 0
  }
  param {
    lr_mult: 0
    decay_mult: 0
  }
  param {
    lr_mult: 0
    decay_mult: 0
  }
  bn_param {
    scale_filler {
      type: "constant"
      value: 1
    }
    shift_filler {
      type: "constant"
      value: 0
    }
    decay: 0.05
    moving_average: true
  }
}
layer {
  name: "block35_10/branch_2/Conv2d_0a_1x1/bn/relu"
  type: "ReLU"
  bottom: "block35_10/branch_2/Conv2d_0a_1x1/bn"
  top: "block35_10/branch_2/Conv2d_0a_1x1/bn"
}
layer {
  name: "block35_10/branch_2/Conv2d_0b_3x3"
  type: "ConvolutionData"
  bottom: "block35_10/branch_2/Conv2d_0a_1x1/bn"
  top: "block35_10/branch_2/Conv2d_0b_3x3"
  param {
    lr_mult: 1
    decay_mult: 1
  }
  convolution_param {
    num_output: 48
    bias_term: false
    pad: 1
    kernel_size: 3
    stride: 1
    weight_filler {
      type: "msra"
    }
  }
}
layer {
  name: "block35_10/branch_2/Conv2d_0b_3x3/bn"
  type: "BNData"
  bottom: "block35_10/branch_2/Conv2d_0b_3x3"
  top: "block35_10/branch_2/Conv2d_0b_3x3/bn"
  param {
    lr_mult: 1
    decay_mult: 0
  }
  param {
    lr_mult: 1
    decay_mult: 0
  }
  param {
    lr_mult: 0
    decay_mult: 0
  }
  param {
    lr_mult: 0
    decay_mult: 0
  }
  bn_param {
    scale_filler {
      type: "constant"
      value: 1
    }
    shift_filler {
      type: "constant"
      value: 0
    }
    decay: 0.05
    moving_average: true
  }
}
layer {
  name: "block35_10/branch_2/Conv2d_0b_3x3/bn/relu"
  type: "ReLU"
  bottom: "block35_10/branch_2/Conv2d_0b_3x3/bn"
  top: "block35_10/branch_2/Conv2d_0b_3x3/bn"
}
layer {
  name: "block35_10/branch_2/Conv2d_0c_3x3"
  type: "ConvolutionData"
  bottom: "block35_10/branch_2/Conv2d_0b_3x3/bn"
  top: "block35_10/branch_2/Conv2d_0c_3x3"
  param {
    lr_mult: 1
    decay_mult: 1
  }
  convolution_param {
    num_output: 64
    bias_term: false
    pad: 1
    kernel_size: 3
    stride: 1
    weight_filler {
      type: "msra"
    }
  }
}
layer {
  name: "block35_10/branch_2/Conv2d_0c_3x3/bn"
  type: "BNData"
  bottom: "block35_10/branch_2/Conv2d_0c_3x3"
  top: "block35_10/branch_2/Conv2d_0c_3x3/bn"
  param {
    lr_mult: 1
    decay_mult: 0
  }
  param {
    lr_mult: 1
    decay_mult: 0
  }
  param {
    lr_mult: 0
    decay_mult: 0
  }
  param {
    lr_mult: 0
    decay_mult: 0
  }
  bn_param {
    scale_filler {
      type: "constant"
      value: 1
    }
    shift_filler {
      type: "constant"
      value: 0
    }
    decay: 0.05
    moving_average: true
  }
}
layer {
  name: "block35_10/branch_2/Conv2d_0c_3x3/bn/relu"
  type: "ReLU"
  bottom: "block35_10/branch_2/Conv2d_0c_3x3/bn"
  top: "block35_10/branch_2/Conv2d_0c_3x3/bn"
}
layer {
  name: "block35_10/concat"
  type: "Concat"
  bottom: "block35_10/branch_0/Conv2d_1x1/bn"
  bottom: "block35_10/branch_1/Conv2d_0b_3x3/bn"
  bottom: "block35_10/branch_2/Conv2d_0c_3x3/bn"
  top: "block35_10/concat"
  concat_param {
    axis: 1
  }
}
layer {
  name: "block35_10/concat/Conv2d_1x1"
  type: "ConvolutionData"
  bottom: "block35_10/concat"
  top: "block35_10/concat/Conv2d_1x1"
  param {
    lr_mult: 1
    decay_mult: 1
  }
  param {
    lr_mult: 2
    decay_mult: 0
  }
  convolution_param {
    num_output: 320
    bias_term: true
    pad: 0
    kernel_size: 1
    stride: 1
    weight_filler {
      type: "msra"
    }
    bias_filler {
      type: "constant"
      value: 0.2
    }
  }
}
layer {
  name: "block35_10/eltwise"
  type: "Eltwise"
  bottom: "block35_9/eltwise"
  bottom: "block35_10/concat/Conv2d_1x1"
  top: "block35_10/eltwise"
  eltwise_param {
    operation: SUM
    coeff: 1
    coeff: 0.17
  }
}
layer {
  name: "block35_10/eltwise/relu"
  type: "ReLU"
  bottom: "block35_10/eltwise"
  top: "block35_10/eltwise"
}
layer {
  name: "reduction_a/branch_0/MaxPool_1a_3x3"
  type: "Pooling"
  bottom: "block35_10/eltwise"
  top: "reduction_a/branch_0/MaxPool_1a_3x3"
  pooling_param {
    pool: MAX
    kernel_size: 3
    stride: 2
  }
}
layer {
  name: "reduction_a/branch_1/Conv2d_1a_3x3"
  type: "ConvolutionData"
  bottom: "block35_10/eltwise"
  top: "reduction_a/branch_1/Conv2d_1a_3x3"
  param {
    lr_mult: 1
    decay_mult: 1
  }
  convolution_param {
    num_output: 384
    bias_term: false
    kernel_size: 3
    stride: 2
    weight_filler {
      type: "msra"
    }
  }
}
layer {
  name: "reduction_a/branch_1/Conv2d_1a_3x3/bn"
  type: "BNData"
  bottom: "reduction_a/branch_1/Conv2d_1a_3x3"
  top: "reduction_a/branch_1/Conv2d_1a_3x3/bn"
  param {
    lr_mult: 1
    decay_mult: 0
  }
  param {
    lr_mult: 1
    decay_mult: 0
  }
  param {
    lr_mult: 0
    decay_mult: 0
  }
  param {
    lr_mult: 0
    decay_mult: 0
  }
  bn_param {
    scale_filler {
      type: "constant"
      value: 1
    }
    shift_filler {
      type: "constant"
      value: 0
    }
    decay: 0.05
    moving_average: true
  }
}
layer {
  name: "reduction_a/branch_1/Conv2d_1a_3x3/bn/relu"
  type: "ReLU"
  bottom: "reduction_a/branch_1/Conv2d_1a_3x3/bn"
  top: "reduction_a/branch_1/Conv2d_1a_3x3/bn"
}
layer {
  name: "reduction_a/branch_2/Conv2d_0a_1x1"
  type: "ConvolutionData"
  bottom: "block35_10/eltwise"
  top: "reduction_a/branch_2/Conv2d_0a_1x1"
  param {
    lr_mult: 1
    decay_mult: 1
  }
  convolution_param {
    num_output: 256
    bias_term: false
    pad: 0
    kernel_size: 1
    stride: 1
    weight_filler {
      type: "msra"
    }
  }
}
layer {
  name: "reduction_a/branch_2/Conv2d_0a_1x1/bn"
  type: "BNData"
  bottom: "reduction_a/branch_2/Conv2d_0a_1x1"
  top: "reduction_a/branch_2/Conv2d_0a_1x1/bn"
  param {
    lr_mult: 1
    decay_mult: 0
  }
  param {
    lr_mult: 1
    decay_mult: 0
  }
  param {
    lr_mult: 0
    decay_mult: 0
  }
  param {
    lr_mult: 0
    decay_mult: 0
  }
  bn_param {
    scale_filler {
      type: "constant"
      value: 1
    }
    shift_filler {
      type: "constant"
      value: 0
    }
    decay: 0.05
    moving_average: true
  }
}
layer {
  name: "reduction_a/branch_2/Conv2d_0a_1x1/bn/relu"
  type: "ReLU"
  bottom: "reduction_a/branch_2/Conv2d_0a_1x1/bn"
  top: "reduction_a/branch_2/Conv2d_0a_1x1/bn"
}
layer {
  name: "reduction_a/branch_2/Conv2d_0b_1x1"
  type: "ConvolutionData"
  bottom: "reduction_a/branch_2/Conv2d_0a_1x1/bn"
  top: "reduction_a/branch_2/Conv2d_0b_1x1"
  param {
    lr_mult: 1
    decay_mult: 1
  }
  convolution_param {
    num_output: 256
    bias_term: false
    pad: 1
    kernel_size: 3
    stride: 1
    weight_filler {
      type: "msra"
    }
  }
}
layer {
  name: "reduction_a/branch_2/Conv2d_0b_1x1/bn"
  type: "BNData"
  bottom: "reduction_a/branch_2/Conv2d_0b_1x1"
  top: "reduction_a/branch_2/Conv2d_0b_1x1/bn"
  param {
    lr_mult: 1
    decay_mult: 0
  }
  param {
    lr_mult: 1
    decay_mult: 0
  }
  param {
    lr_mult: 0
    decay_mult: 0
  }
  param {
    lr_mult: 0
    decay_mult: 0
  }
  bn_param {
    scale_filler {
      type: "constant"
      value: 1
    }
    shift_filler {
      type: "constant"
      value: 0
    }
    decay: 0.05
    moving_average: true
  }
}
layer {
  name: "reduction_a/branch_2/Conv2d_0b_1x1/bn/relu"
  type: "ReLU"
  bottom: "reduction_a/branch_2/Conv2d_0b_1x1/bn"
  top: "reduction_a/branch_2/Conv2d_0b_1x1/bn"
}
layer {
  name: "reduction_a/branch_2/Conv2d_1a_3x3"
  type: "ConvolutionData"
  bottom: "reduction_a/branch_2/Conv2d_0b_1x1/bn"
  top: "reduction_a/branch_2/Conv2d_1a_3x3"
  param {
    lr_mult: 1
    decay_mult: 1
  }
  convolution_param {
    num_output: 384
    bias_term: false
    kernel_size: 3
    stride: 2
    weight_filler {
      type: "msra"
    }
  }
}
layer {
  name: "reduction_a/branch_2/Conv2d_1a_3x3/bn"
  type: "BNData"
  bottom: "reduction_a/branch_2/Conv2d_1a_3x3"
  top: "reduction_a/branch_2/Conv2d_1a_3x3/bn"
  param {
    lr_mult: 1
    decay_mult: 0
  }
  param {
    lr_mult: 1
    decay_mult: 0
  }
  param {
    lr_mult: 0
    decay_mult: 0
  }
  param {
    lr_mult: 0
    decay_mult: 0
  }
  bn_param {
    scale_filler {
      type: "constant"
      value: 1
    }
    shift_filler {
      type: "constant"
      value: 0
    }
    decay: 0.05
    moving_average: true
  }
}
layer {
  name: "reduction_a/branch_2/Conv2d_1a_3x3/bn/relu"
  type: "ReLU"
  bottom: "reduction_a/branch_2/Conv2d_1a_3x3/bn"
  top: "reduction_a/branch_2/Conv2d_1a_3x3/bn"
}
layer {
  name: "reduction_a/concat"
  type: "Concat"
  bottom: "reduction_a/branch_0/MaxPool_1a_3x3"
  bottom: "reduction_a/branch_1/Conv2d_1a_3x3/bn"
  bottom: "reduction_a/branch_2/Conv2d_1a_3x3/bn"
  top: "reduction_a/concat"
  concat_param {
    axis: 1
  }
}
layer {
  name: "block17_1/branch_0/Conv2d_1x1"
  type: "ConvolutionData"
  bottom: "reduction_a/concat"
  top: "block17_1/branch_0/Conv2d_1x1"
  param {
    lr_mult: 1
    decay_mult: 1
  }
  convolution_param {
    num_output: 192
    bias_term: false
    pad: 0
    kernel_size: 1
    stride: 1
    weight_filler {
      type: "msra"
    }
  }
}
layer {
  name: "block17_1/branch_0/Conv2d_1x1/bn"
  type: "BNData"
  bottom: "block17_1/branch_0/Conv2d_1x1"
  top: "block17_1/branch_0/Conv2d_1x1/bn"
  param {
    lr_mult: 1
    decay_mult: 0
  }
  param {
    lr_mult: 1
    decay_mult: 0
  }
  param {
    lr_mult: 0
    decay_mult: 0
  }
  param {
    lr_mult: 0
    decay_mult: 0
  }
  bn_param {
    scale_filler {
      type: "constant"
      value: 1
    }
    shift_filler {
      type: "constant"
      value: 0
    }
    decay: 0.05
    moving_average: true
  }
}
layer {
  name: "block17_1/branch_0/Conv2d_1x1/bn/relu"
  type: "ReLU"
  bottom: "block17_1/branch_0/Conv2d_1x1/bn"
  top: "block17_1/branch_0/Conv2d_1x1/bn"
}
layer {
  name: "block17_1/branch_1/Conv2d_0a_1x1"
  type: "ConvolutionData"
  bottom: "reduction_a/concat"
  top: "block17_1/branch_1/Conv2d_0a_1x1"
  param {
    lr_mult: 1
    decay_mult: 1
  }
  convolution_param {
    num_output: 128
    bias_term: false
    pad: 0
    kernel_size: 1
    stride: 1
    weight_filler {
      type: "msra"
    }
  }
}
layer {
  name: "block17_1/branch_1/Conv2d_0a_1x1/bn"
  type: "BNData"
  bottom: "block17_1/branch_1/Conv2d_0a_1x1"
  top: "block17_1/branch_1/Conv2d_0a_1x1/bn"
  param {
    lr_mult: 1
    decay_mult: 0
  }
  param {
    lr_mult: 1
    decay_mult: 0
  }
  param {
    lr_mult: 0
    decay_mult: 0
  }
  param {
    lr_mult: 0
    decay_mult: 0
  }
  bn_param {
    scale_filler {
      type: "constant"
      value: 1
    }
    shift_filler {
      type: "constant"
      value: 0
    }
    decay: 0.05
    moving_average: true
  }
}
layer {
  name: "block17_1/branch_1/Conv2d_0a_1x1/bn/relu"
  type: "ReLU"
  bottom: "block17_1/branch_1/Conv2d_0a_1x1/bn"
  top: "block17_1/branch_1/Conv2d_0a_1x1/bn"
}
layer {
  name: "block17_1/branch_1/Conv2d_0b_1x7"
  type: "ConvolutionData"
  bottom: "block17_1/branch_1/Conv2d_0a_1x1/bn"
  top: "block17_1/branch_1/Conv2d_0b_1x7"
  param {
    lr_mult: 1
    decay_mult: 1
  }
  convolution_param {
    num_output: 160
    bias_term: false
    stride: 1
    weight_filler {
      type: "msra"
    }
    pad_h: 0
    pad_w: 3
    kernel_h: 1
    kernel_w: 7
  }
}
layer {
  name: "block17_1/branch_1/Conv2d_0b_1x7/bn"
  type: "BNData"
  bottom: "block17_1/branch_1/Conv2d_0b_1x7"
  top: "block17_1/branch_1/Conv2d_0b_1x7/bn"
  param {
    lr_mult: 1
    decay_mult: 0
  }
  param {
    lr_mult: 1
    decay_mult: 0
  }
  param {
    lr_mult: 0
    decay_mult: 0
  }
  param {
    lr_mult: 0
    decay_mult: 0
  }
  bn_param {
    scale_filler {
      type: "constant"
      value: 1
    }
    shift_filler {
      type: "constant"
      value: 0
    }
    decay: 0.05
    moving_average: true
  }
}
layer {
  name: "block17_1/branch_1/Conv2d_0b_1x7/bn/relu"
  type: "ReLU"
  bottom: "block17_1/branch_1/Conv2d_0b_1x7/bn"
  top: "block17_1/branch_1/Conv2d_0b_1x7/bn"
}
layer {
  name: "block17_1/branch_1/Conv2d_0c_7x1"
  type: "ConvolutionData"
  bottom: "block17_1/branch_1/Conv2d_0b_1x7/bn"
  top: "block17_1/branch_1/Conv2d_0c_7x1"
  param {
    lr_mult: 1
    decay_mult: 1
  }
  convolution_param {
    num_output: 192
    bias_term: false
    stride: 1
    weight_filler {
      type: "msra"
    }
    pad_h: 3
    pad_w: 0
    kernel_h: 7
    kernel_w: 1
  }
}
layer {
  name: "block17_1/branch_1/Conv2d_0c_7x1/bn"
  type: "BNData"
  bottom: "block17_1/branch_1/Conv2d_0c_7x1"
  top: "block17_1/branch_1/Conv2d_0c_7x1/bn"
  param {
    lr_mult: 1
    decay_mult: 0
  }
  param {
    lr_mult: 1
    decay_mult: 0
  }
  param {
    lr_mult: 0
    decay_mult: 0
  }
  param {
    lr_mult: 0
    decay_mult: 0
  }
  bn_param {
    scale_filler {
      type: "constant"
      value: 1
    }
    shift_filler {
      type: "constant"
      value: 0
    }
    decay: 0.05
    moving_average: true
  }
}
layer {
  name: "block17_1/branch_1/Conv2d_0c_7x1/bn/relu"
  type: "ReLU"
  bottom: "block17_1/branch_1/Conv2d_0c_7x1/bn"
  top: "block17_1/branch_1/Conv2d_0c_7x1/bn"
}
layer {
  name: "block17_1/concat"
  type: "Concat"
  bottom: "block17_1/branch_0/Conv2d_1x1/bn"
  bottom: "block17_1/branch_1/Conv2d_0c_7x1/bn"
  top: "block17_1/concat"
  concat_param {
    axis: 1
  }
}
layer {
  name: "block17_1/concat/Conv2d_1x1"
  type: "ConvolutionData"
  bottom: "block17_1/concat"
  top: "block17_1/concat/Conv2d_1x1"
  param {
    lr_mult: 1
    decay_mult: 1
  }
  param {
    lr_mult: 2
    decay_mult: 0
  }
  convolution_param {
    num_output: 1088
    bias_term: true
    pad: 0
    kernel_size: 1
    stride: 1
    weight_filler {
      type: "msra"
    }
    bias_filler {
      type: "constant"
      value: 0.2
    }
  }
}
layer {
  name: "block17_1/eltwise"
  type: "Eltwise"
  bottom: "reduction_a/concat"
  bottom: "block17_1/concat/Conv2d_1x1"
  top: "block17_1/eltwise"
  eltwise_param {
    operation: SUM
    coeff: 1
    coeff: 0.1
  }
}
layer {
  name: "block17_1/eltwise/relu"
  type: "ReLU"
  bottom: "block17_1/eltwise"
  top: "block17_1/eltwise"
}
layer {
  name: "block17_2/branch_0/Conv2d_1x1"
  type: "ConvolutionData"
  bottom: "block17_1/eltwise"
  top: "block17_2/branch_0/Conv2d_1x1"
  param {
    lr_mult: 1
    decay_mult: 1
  }
  convolution_param {
    num_output: 192
    bias_term: false
    pad: 0
    kernel_size: 1
    stride: 1
    weight_filler {
      type: "msra"
    }
  }
}
layer {
  name: "block17_2/branch_0/Conv2d_1x1/bn"
  type: "BNData"
  bottom: "block17_2/branch_0/Conv2d_1x1"
  top: "block17_2/branch_0/Conv2d_1x1/bn"
  param {
    lr_mult: 1
    decay_mult: 0
  }
  param {
    lr_mult: 1
    decay_mult: 0
  }
  param {
    lr_mult: 0
    decay_mult: 0
  }
  param {
    lr_mult: 0
    decay_mult: 0
  }
  bn_param {
    scale_filler {
      type: "constant"
      value: 1
    }
    shift_filler {
      type: "constant"
      value: 0
    }
    decay: 0.05
    moving_average: true
  }
}
layer {
  name: "block17_2/branch_0/Conv2d_1x1/bn/relu"
  type: "ReLU"
  bottom: "block17_2/branch_0/Conv2d_1x1/bn"
  top: "block17_2/branch_0/Conv2d_1x1/bn"
}
layer {
  name: "block17_2/branch_1/Conv2d_0a_1x1"
  type: "ConvolutionData"
  bottom: "block17_1/eltwise"
  top: "block17_2/branch_1/Conv2d_0a_1x1"
  param {
    lr_mult: 1
    decay_mult: 1
  }
  convolution_param {
    num_output: 128
    bias_term: false
    pad: 0
    kernel_size: 1
    stride: 1
    weight_filler {
      type: "msra"
    }
  }
}
layer {
  name: "block17_2/branch_1/Conv2d_0a_1x1/bn"
  type: "BNData"
  bottom: "block17_2/branch_1/Conv2d_0a_1x1"
  top: "block17_2/branch_1/Conv2d_0a_1x1/bn"
  param {
    lr_mult: 1
    decay_mult: 0
  }
  param {
    lr_mult: 1
    decay_mult: 0
  }
  param {
    lr_mult: 0
    decay_mult: 0
  }
  param {
    lr_mult: 0
    decay_mult: 0
  }
  bn_param {
    scale_filler {
      type: "constant"
      value: 1
    }
    shift_filler {
      type: "constant"
      value: 0
    }
    decay: 0.05
    moving_average: true
  }
}
layer {
  name: "block17_2/branch_1/Conv2d_0a_1x1/bn/relu"
  type: "ReLU"
  bottom: "block17_2/branch_1/Conv2d_0a_1x1/bn"
  top: "block17_2/branch_1/Conv2d_0a_1x1/bn"
}
layer {
  name: "block17_2/branch_1/Conv2d_0b_1x7"
  type: "ConvolutionData"
  bottom: "block17_2/branch_1/Conv2d_0a_1x1/bn"
  top: "block17_2/branch_1/Conv2d_0b_1x7"
  param {
    lr_mult: 1
    decay_mult: 1
  }
  convolution_param {
    num_output: 160
    bias_term: false
    stride: 1
    weight_filler {
      type: "msra"
    }
    pad_h: 0
    pad_w: 3
    kernel_h: 1
    kernel_w: 7
  }
}
layer {
  name: "block17_2/branch_1/Conv2d_0b_1x7/bn"
  type: "BNData"
  bottom: "block17_2/branch_1/Conv2d_0b_1x7"
  top: "block17_2/branch_1/Conv2d_0b_1x7/bn"
  param {
    lr_mult: 1
    decay_mult: 0
  }
  param {
    lr_mult: 1
    decay_mult: 0
  }
  param {
    lr_mult: 0
    decay_mult: 0
  }
  param {
    lr_mult: 0
    decay_mult: 0
  }
  bn_param {
    scale_filler {
      type: "constant"
      value: 1
    }
    shift_filler {
      type: "constant"
      value: 0
    }
    decay: 0.05
    moving_average: true
  }
}
layer {
  name: "block17_2/branch_1/Conv2d_0b_1x7/bn/relu"
  type: "ReLU"
  bottom: "block17_2/branch_1/Conv2d_0b_1x7/bn"
  top: "block17_2/branch_1/Conv2d_0b_1x7/bn"
}
layer {
  name: "block17_2/branch_1/Conv2d_0c_7x1"
  type: "ConvolutionData"
  bottom: "block17_2/branch_1/Conv2d_0b_1x7/bn"
  top: "block17_2/branch_1/Conv2d_0c_7x1"
  param {
    lr_mult: 1
    decay_mult: 1
  }
  convolution_param {
    num_output: 192
    bias_term: false
    stride: 1
    weight_filler {
      type: "msra"
    }
    pad_h: 3
    pad_w: 0
    kernel_h: 7
    kernel_w: 1
  }
}
layer {
  name: "block17_2/branch_1/Conv2d_0c_7x1/bn"
  type: "BNData"
  bottom: "block17_2/branch_1/Conv2d_0c_7x1"
  top: "block17_2/branch_1/Conv2d_0c_7x1/bn"
  param {
    lr_mult: 1
    decay_mult: 0
  }
  param {
    lr_mult: 1
    decay_mult: 0
  }
  param {
    lr_mult: 0
    decay_mult: 0
  }
  param {
    lr_mult: 0
    decay_mult: 0
  }
  bn_param {
    scale_filler {
      type: "constant"
      value: 1
    }
    shift_filler {
      type: "constant"
      value: 0
    }
    decay: 0.05
    moving_average: true
  }
}
layer {
  name: "block17_2/branch_1/Conv2d_0c_7x1/bn/relu"
  type: "ReLU"
  bottom: "block17_2/branch_1/Conv2d_0c_7x1/bn"
  top: "block17_2/branch_1/Conv2d_0c_7x1/bn"
}
layer {
  name: "block17_2/concat"
  type: "Concat"
  bottom: "block17_2/branch_0/Conv2d_1x1/bn"
  bottom: "block17_2/branch_1/Conv2d_0c_7x1/bn"
  top: "block17_2/concat"
  concat_param {
    axis: 1
  }
}
layer {
  name: "block17_2/concat/Conv2d_1x1"
  type: "ConvolutionData"
  bottom: "block17_2/concat"
  top: "block17_2/concat/Conv2d_1x1"
  param {
    lr_mult: 1
    decay_mult: 1
  }
  param {
    lr_mult: 2
    decay_mult: 0
  }
  convolution_param {
    num_output: 1088
    bias_term: true
    pad: 0
    kernel_size: 1
    stride: 1
    weight_filler {
      type: "msra"
    }
    bias_filler {
      type: "constant"
      value: 0.2
    }
  }
}
layer {
  name: "block17_2/eltwise"
  type: "Eltwise"
  bottom: "block17_1/eltwise"
  bottom: "block17_2/concat/Conv2d_1x1"
  top: "block17_2/eltwise"
  eltwise_param {
    operation: SUM
    coeff: 1
    coeff: 0.1
  }
}
layer {
  name: "block17_2/eltwise/relu"
  type: "ReLU"
  bottom: "block17_2/eltwise"
  top: "block17_2/eltwise"
}
layer {
  name: "block17_3/branch_0/Conv2d_1x1"
  type: "ConvolutionData"
  bottom: "block17_2/eltwise"
  top: "block17_3/branch_0/Conv2d_1x1"
  param {
    lr_mult: 1
    decay_mult: 1
  }
  convolution_param {
    num_output: 192
    bias_term: false
    pad: 0
    kernel_size: 1
    stride: 1
    weight_filler {
      type: "msra"
    }
  }
}
layer {
  name: "block17_3/branch_0/Conv2d_1x1/bn"
  type: "BNData"
  bottom: "block17_3/branch_0/Conv2d_1x1"
  top: "block17_3/branch_0/Conv2d_1x1/bn"
  param {
    lr_mult: 1
    decay_mult: 0
  }
  param {
    lr_mult: 1
    decay_mult: 0
  }
  param {
    lr_mult: 0
    decay_mult: 0
  }
  param {
    lr_mult: 0
    decay_mult: 0
  }
  bn_param {
    scale_filler {
      type: "constant"
      value: 1
    }
    shift_filler {
      type: "constant"
      value: 0
    }
    decay: 0.05
    moving_average: true
  }
}
layer {
  name: "block17_3/branch_0/Conv2d_1x1/bn/relu"
  type: "ReLU"
  bottom: "block17_3/branch_0/Conv2d_1x1/bn"
  top: "block17_3/branch_0/Conv2d_1x1/bn"
}
layer {
  name: "block17_3/branch_1/Conv2d_0a_1x1"
  type: "ConvolutionData"
  bottom: "block17_2/eltwise"
  top: "block17_3/branch_1/Conv2d_0a_1x1"
  param {
    lr_mult: 1
    decay_mult: 1
  }
  convolution_param {
    num_output: 128
    bias_term: false
    pad: 0
    kernel_size: 1
    stride: 1
    weight_filler {
      type: "msra"
    }
  }
}
layer {
  name: "block17_3/branch_1/Conv2d_0a_1x1/bn"
  type: "BNData"
  bottom: "block17_3/branch_1/Conv2d_0a_1x1"
  top: "block17_3/branch_1/Conv2d_0a_1x1/bn"
  param {
    lr_mult: 1
    decay_mult: 0
  }
  param {
    lr_mult: 1
    decay_mult: 0
  }
  param {
    lr_mult: 0
    decay_mult: 0
  }
  param {
    lr_mult: 0
    decay_mult: 0
  }
  bn_param {
    scale_filler {
      type: "constant"
      value: 1
    }
    shift_filler {
      type: "constant"
      value: 0
    }
    decay: 0.05
    moving_average: true
  }
}
layer {
  name: "block17_3/branch_1/Conv2d_0a_1x1/bn/relu"
  type: "ReLU"
  bottom: "block17_3/branch_1/Conv2d_0a_1x1/bn"
  top: "block17_3/branch_1/Conv2d_0a_1x1/bn"
}
layer {
  name: "block17_3/branch_1/Conv2d_0b_1x7"
  type: "ConvolutionData"
  bottom: "block17_3/branch_1/Conv2d_0a_1x1/bn"
  top: "block17_3/branch_1/Conv2d_0b_1x7"
  param {
    lr_mult: 1
    decay_mult: 1
  }
  convolution_param {
    num_output: 160
    bias_term: false
    stride: 1
    weight_filler {
      type: "msra"
    }
    pad_h: 0
    pad_w: 3
    kernel_h: 1
    kernel_w: 7
  }
}
layer {
  name: "block17_3/branch_1/Conv2d_0b_1x7/bn"
  type: "BNData"
  bottom: "block17_3/branch_1/Conv2d_0b_1x7"
  top: "block17_3/branch_1/Conv2d_0b_1x7/bn"
  param {
    lr_mult: 1
    decay_mult: 0
  }
  param {
    lr_mult: 1
    decay_mult: 0
  }
  param {
    lr_mult: 0
    decay_mult: 0
  }
  param {
    lr_mult: 0
    decay_mult: 0
  }
  bn_param {
    scale_filler {
      type: "constant"
      value: 1
    }
    shift_filler {
      type: "constant"
      value: 0
    }
    decay: 0.05
    moving_average: true
  }
}
layer {
  name: "block17_3/branch_1/Conv2d_0b_1x7/bn/relu"
  type: "ReLU"
  bottom: "block17_3/branch_1/Conv2d_0b_1x7/bn"
  top: "block17_3/branch_1/Conv2d_0b_1x7/bn"
}
layer {
  name: "block17_3/branch_1/Conv2d_0c_7x1"
  type: "ConvolutionData"
  bottom: "block17_3/branch_1/Conv2d_0b_1x7/bn"
  top: "block17_3/branch_1/Conv2d_0c_7x1"
  param {
    lr_mult: 1
    decay_mult: 1
  }
  convolution_param {
    num_output: 192
    bias_term: false
    stride: 1
    weight_filler {
      type: "msra"
    }
    pad_h: 3
    pad_w: 0
    kernel_h: 7
    kernel_w: 1
  }
}
layer {
  name: "block17_3/branch_1/Conv2d_0c_7x1/bn"
  type: "BNData"
  bottom: "block17_3/branch_1/Conv2d_0c_7x1"
  top: "block17_3/branch_1/Conv2d_0c_7x1/bn"
  param {
    lr_mult: 1
    decay_mult: 0
  }
  param {
    lr_mult: 1
    decay_mult: 0
  }
  param {
    lr_mult: 0
    decay_mult: 0
  }
  param {
    lr_mult: 0
    decay_mult: 0
  }
  bn_param {
    scale_filler {
      type: "constant"
      value: 1
    }
    shift_filler {
      type: "constant"
      value: 0
    }
    decay: 0.05
    moving_average: true
  }
}
layer {
  name: "block17_3/branch_1/Conv2d_0c_7x1/bn/relu"
  type: "ReLU"
  bottom: "block17_3/branch_1/Conv2d_0c_7x1/bn"
  top: "block17_3/branch_1/Conv2d_0c_7x1/bn"
}
layer {
  name: "block17_3/concat"
  type: "Concat"
  bottom: "block17_3/branch_0/Conv2d_1x1/bn"
  bottom: "block17_3/branch_1/Conv2d_0c_7x1/bn"
  top: "block17_3/concat"
  concat_param {
    axis: 1
  }
}
layer {
  name: "block17_3/concat/Conv2d_1x1"
  type: "ConvolutionData"
  bottom: "block17_3/concat"
  top: "block17_3/concat/Conv2d_1x1"
  param {
    lr_mult: 1
    decay_mult: 1
  }
  param {
    lr_mult: 2
    decay_mult: 0
  }
  convolution_param {
    num_output: 1088
    bias_term: true
    pad: 0
    kernel_size: 1
    stride: 1
    weight_filler {
      type: "msra"
    }
    bias_filler {
      type: "constant"
      value: 0.2
    }
  }
}
layer {
  name: "block17_3/eltwise"
  type: "Eltwise"
  bottom: "block17_2/eltwise"
  bottom: "block17_3/concat/Conv2d_1x1"
  top: "block17_3/eltwise"
  eltwise_param {
    operation: SUM
    coeff: 1
    coeff: 0.1
  }
}
layer {
  name: "block17_3/eltwise/relu"
  type: "ReLU"
  bottom: "block17_3/eltwise"
  top: "block17_3/eltwise"
}
layer {
  name: "block17_4/branch_0/Conv2d_1x1"
  type: "ConvolutionData"
  bottom: "block17_3/eltwise"
  top: "block17_4/branch_0/Conv2d_1x1"
  param {
    lr_mult: 1
    decay_mult: 1
  }
  convolution_param {
    num_output: 192
    bias_term: false
    pad: 0
    kernel_size: 1
    stride: 1
    weight_filler {
      type: "msra"
    }
  }
}
layer {
  name: "block17_4/branch_0/Conv2d_1x1/bn"
  type: "BNData"
  bottom: "block17_4/branch_0/Conv2d_1x1"
  top: "block17_4/branch_0/Conv2d_1x1/bn"
  param {
    lr_mult: 1
    decay_mult: 0
  }
  param {
    lr_mult: 1
    decay_mult: 0
  }
  param {
    lr_mult: 0
    decay_mult: 0
  }
  param {
    lr_mult: 0
    decay_mult: 0
  }
  bn_param {
    scale_filler {
      type: "constant"
      value: 1
    }
    shift_filler {
      type: "constant"
      value: 0
    }
    decay: 0.05
    moving_average: true
  }
}
layer {
  name: "block17_4/branch_0/Conv2d_1x1/bn/relu"
  type: "ReLU"
  bottom: "block17_4/branch_0/Conv2d_1x1/bn"
  top: "block17_4/branch_0/Conv2d_1x1/bn"
}
layer {
  name: "block17_4/branch_1/Conv2d_0a_1x1"
  type: "ConvolutionData"
  bottom: "block17_3/eltwise"
  top: "block17_4/branch_1/Conv2d_0a_1x1"
  param {
    lr_mult: 1
    decay_mult: 1
  }
  convolution_param {
    num_output: 128
    bias_term: false
    pad: 0
    kernel_size: 1
    stride: 1
    weight_filler {
      type: "msra"
    }
  }
}
layer {
  name: "block17_4/branch_1/Conv2d_0a_1x1/bn"
  type: "BNData"
  bottom: "block17_4/branch_1/Conv2d_0a_1x1"
  top: "block17_4/branch_1/Conv2d_0a_1x1/bn"
  param {
    lr_mult: 1
    decay_mult: 0
  }
  param {
    lr_mult: 1
    decay_mult: 0
  }
  param {
    lr_mult: 0
    decay_mult: 0
  }
  param {
    lr_mult: 0
    decay_mult: 0
  }
  bn_param {
    scale_filler {
      type: "constant"
      value: 1
    }
    shift_filler {
      type: "constant"
      value: 0
    }
    decay: 0.05
    moving_average: true
  }
}
layer {
  name: "block17_4/branch_1/Conv2d_0a_1x1/bn/relu"
  type: "ReLU"
  bottom: "block17_4/branch_1/Conv2d_0a_1x1/bn"
  top: "block17_4/branch_1/Conv2d_0a_1x1/bn"
}
layer {
  name: "block17_4/branch_1/Conv2d_0b_1x7"
  type: "ConvolutionData"
  bottom: "block17_4/branch_1/Conv2d_0a_1x1/bn"
  top: "block17_4/branch_1/Conv2d_0b_1x7"
  param {
    lr_mult: 1
    decay_mult: 1
  }
  convolution_param {
    num_output: 160
    bias_term: false
    stride: 1
    weight_filler {
      type: "msra"
    }
    pad_h: 0
    pad_w: 3
    kernel_h: 1
    kernel_w: 7
  }
}
layer {
  name: "block17_4/branch_1/Conv2d_0b_1x7/bn"
  type: "BNData"
  bottom: "block17_4/branch_1/Conv2d_0b_1x7"
  top: "block17_4/branch_1/Conv2d_0b_1x7/bn"
  param {
    lr_mult: 1
    decay_mult: 0
  }
  param {
    lr_mult: 1
    decay_mult: 0
  }
  param {
    lr_mult: 0
    decay_mult: 0
  }
  param {
    lr_mult: 0
    decay_mult: 0
  }
  bn_param {
    scale_filler {
      type: "constant"
      value: 1
    }
    shift_filler {
      type: "constant"
      value: 0
    }
    decay: 0.05
    moving_average: true
  }
}
layer {
  name: "block17_4/branch_1/Conv2d_0b_1x7/bn/relu"
  type: "ReLU"
  bottom: "block17_4/branch_1/Conv2d_0b_1x7/bn"
  top: "block17_4/branch_1/Conv2d_0b_1x7/bn"
}
layer {
  name: "block17_4/branch_1/Conv2d_0c_7x1"
  type: "ConvolutionData"
  bottom: "block17_4/branch_1/Conv2d_0b_1x7/bn"
  top: "block17_4/branch_1/Conv2d_0c_7x1"
  param {
    lr_mult: 1
    decay_mult: 1
  }
  convolution_param {
    num_output: 192
    bias_term: false
    stride: 1
    weight_filler {
      type: "msra"
    }
    pad_h: 3
    pad_w: 0
    kernel_h: 7
    kernel_w: 1
  }
}
layer {
  name: "block17_4/branch_1/Conv2d_0c_7x1/bn"
  type: "BNData"
  bottom: "block17_4/branch_1/Conv2d_0c_7x1"
  top: "block17_4/branch_1/Conv2d_0c_7x1/bn"
  param {
    lr_mult: 1
    decay_mult: 0
  }
  param {
    lr_mult: 1
    decay_mult: 0
  }
  param {
    lr_mult: 0
    decay_mult: 0
  }
  param {
    lr_mult: 0
    decay_mult: 0
  }
  bn_param {
    scale_filler {
      type: "constant"
      value: 1
    }
    shift_filler {
      type: "constant"
      value: 0
    }
    decay: 0.05
    moving_average: true
  }
}
layer {
  name: "block17_4/branch_1/Conv2d_0c_7x1/bn/relu"
  type: "ReLU"
  bottom: "block17_4/branch_1/Conv2d_0c_7x1/bn"
  top: "block17_4/branch_1/Conv2d_0c_7x1/bn"
}
layer {
  name: "block17_4/concat"
  type: "Concat"
  bottom: "block17_4/branch_0/Conv2d_1x1/bn"
  bottom: "block17_4/branch_1/Conv2d_0c_7x1/bn"
  top: "block17_4/concat"
  concat_param {
    axis: 1
  }
}
layer {
  name: "block17_4/concat/Conv2d_1x1"
  type: "ConvolutionData"
  bottom: "block17_4/concat"
  top: "block17_4/concat/Conv2d_1x1"
  param {
    lr_mult: 1
    decay_mult: 1
  }
  param {
    lr_mult: 2
    decay_mult: 0
  }
  convolution_param {
    num_output: 1088
    bias_term: true
    pad: 0
    kernel_size: 1
    stride: 1
    weight_filler {
      type: "msra"
    }
    bias_filler {
      type: "constant"
      value: 0.2
    }
  }
}
layer {
  name: "block17_4/eltwise"
  type: "Eltwise"
  bottom: "block17_3/eltwise"
  bottom: "block17_4/concat/Conv2d_1x1"
  top: "block17_4/eltwise"
  eltwise_param {
    operation: SUM
    coeff: 1
    coeff: 0.1
  }
}
layer {
  name: "block17_4/eltwise/relu"
  type: "ReLU"
  bottom: "block17_4/eltwise"
  top: "block17_4/eltwise"
}
layer {
  name: "block17_5/branch_0/Conv2d_1x1"
  type: "ConvolutionData"
  bottom: "block17_4/eltwise"
  top: "block17_5/branch_0/Conv2d_1x1"
  param {
    lr_mult: 1
    decay_mult: 1
  }
  convolution_param {
    num_output: 192
    bias_term: false
    pad: 0
    kernel_size: 1
    stride: 1
    weight_filler {
      type: "msra"
    }
  }
}
layer {
  name: "block17_5/branch_0/Conv2d_1x1/bn"
  type: "BNData"
  bottom: "block17_5/branch_0/Conv2d_1x1"
  top: "block17_5/branch_0/Conv2d_1x1/bn"
  param {
    lr_mult: 1
    decay_mult: 0
  }
  param {
    lr_mult: 1
    decay_mult: 0
  }
  param {
    lr_mult: 0
    decay_mult: 0
  }
  param {
    lr_mult: 0
    decay_mult: 0
  }
  bn_param {
    scale_filler {
      type: "constant"
      value: 1
    }
    shift_filler {
      type: "constant"
      value: 0
    }
    decay: 0.05
    moving_average: true
  }
}
layer {
  name: "block17_5/branch_0/Conv2d_1x1/bn/relu"
  type: "ReLU"
  bottom: "block17_5/branch_0/Conv2d_1x1/bn"
  top: "block17_5/branch_0/Conv2d_1x1/bn"
}
layer {
  name: "block17_5/branch_1/Conv2d_0a_1x1"
  type: "ConvolutionData"
  bottom: "block17_4/eltwise"
  top: "block17_5/branch_1/Conv2d_0a_1x1"
  param {
    lr_mult: 1
    decay_mult: 1
  }
  convolution_param {
    num_output: 128
    bias_term: false
    pad: 0
    kernel_size: 1
    stride: 1
    weight_filler {
      type: "msra"
    }
  }
}
layer {
  name: "block17_5/branch_1/Conv2d_0a_1x1/bn"
  type: "BNData"
  bottom: "block17_5/branch_1/Conv2d_0a_1x1"
  top: "block17_5/branch_1/Conv2d_0a_1x1/bn"
  param {
    lr_mult: 1
    decay_mult: 0
  }
  param {
    lr_mult: 1
    decay_mult: 0
  }
  param {
    lr_mult: 0
    decay_mult: 0
  }
  param {
    lr_mult: 0
    decay_mult: 0
  }
  bn_param {
    scale_filler {
      type: "constant"
      value: 1
    }
    shift_filler {
      type: "constant"
      value: 0
    }
    decay: 0.05
    moving_average: true
  }
}
layer {
  name: "block17_5/branch_1/Conv2d_0a_1x1/bn/relu"
  type: "ReLU"
  bottom: "block17_5/branch_1/Conv2d_0a_1x1/bn"
  top: "block17_5/branch_1/Conv2d_0a_1x1/bn"
}
layer {
  name: "block17_5/branch_1/Conv2d_0b_1x7"
  type: "ConvolutionData"
  bottom: "block17_5/branch_1/Conv2d_0a_1x1/bn"
  top: "block17_5/branch_1/Conv2d_0b_1x7"
  param {
    lr_mult: 1
    decay_mult: 1
  }
  convolution_param {
    num_output: 160
    bias_term: false
    stride: 1
    weight_filler {
      type: "msra"
    }
    pad_h: 0
    pad_w: 3
    kernel_h: 1
    kernel_w: 7
  }
}
layer {
  name: "block17_5/branch_1/Conv2d_0b_1x7/bn"
  type: "BNData"
  bottom: "block17_5/branch_1/Conv2d_0b_1x7"
  top: "block17_5/branch_1/Conv2d_0b_1x7/bn"
  param {
    lr_mult: 1
    decay_mult: 0
  }
  param {
    lr_mult: 1
    decay_mult: 0
  }
  param {
    lr_mult: 0
    decay_mult: 0
  }
  param {
    lr_mult: 0
    decay_mult: 0
  }
  bn_param {
    scale_filler {
      type: "constant"
      value: 1
    }
    shift_filler {
      type: "constant"
      value: 0
    }
    decay: 0.05
    moving_average: true
  }
}
layer {
  name: "block17_5/branch_1/Conv2d_0b_1x7/bn/relu"
  type: "ReLU"
  bottom: "block17_5/branch_1/Conv2d_0b_1x7/bn"
  top: "block17_5/branch_1/Conv2d_0b_1x7/bn"
}
layer {
  name: "block17_5/branch_1/Conv2d_0c_7x1"
  type: "ConvolutionData"
  bottom: "block17_5/branch_1/Conv2d_0b_1x7/bn"
  top: "block17_5/branch_1/Conv2d_0c_7x1"
  param {
    lr_mult: 1
    decay_mult: 1
  }
  convolution_param {
    num_output: 192
    bias_term: false
    stride: 1
    weight_filler {
      type: "msra"
    }
    pad_h: 3
    pad_w: 0
    kernel_h: 7
    kernel_w: 1
  }
}
layer {
  name: "block17_5/branch_1/Conv2d_0c_7x1/bn"
  type: "BNData"
  bottom: "block17_5/branch_1/Conv2d_0c_7x1"
  top: "block17_5/branch_1/Conv2d_0c_7x1/bn"
  param {
    lr_mult: 1
    decay_mult: 0
  }
  param {
    lr_mult: 1
    decay_mult: 0
  }
  param {
    lr_mult: 0
    decay_mult: 0
  }
  param {
    lr_mult: 0
    decay_mult: 0
  }
  bn_param {
    scale_filler {
      type: "constant"
      value: 1
    }
    shift_filler {
      type: "constant"
      value: 0
    }
    decay: 0.05
    moving_average: true
  }
}
layer {
  name: "block17_5/branch_1/Conv2d_0c_7x1/bn/relu"
  type: "ReLU"
  bottom: "block17_5/branch_1/Conv2d_0c_7x1/bn"
  top: "block17_5/branch_1/Conv2d_0c_7x1/bn"
}
layer {
  name: "block17_5/concat"
  type: "Concat"
  bottom: "block17_5/branch_0/Conv2d_1x1/bn"
  bottom: "block17_5/branch_1/Conv2d_0c_7x1/bn"
  top: "block17_5/concat"
  concat_param {
    axis: 1
  }
}
layer {
  name: "block17_5/concat/Conv2d_1x1"
  type: "ConvolutionData"
  bottom: "block17_5/concat"
  top: "block17_5/concat/Conv2d_1x1"
  param {
    lr_mult: 1
    decay_mult: 1
  }
  param {
    lr_mult: 2
    decay_mult: 0
  }
  convolution_param {
    num_output: 1088
    bias_term: true
    pad: 0
    kernel_size: 1
    stride: 1
    weight_filler {
      type: "msra"
    }
    bias_filler {
      type: "constant"
      value: 0.2
    }
  }
}
layer {
  name: "block17_5/eltwise"
  type: "Eltwise"
  bottom: "block17_4/eltwise"
  bottom: "block17_5/concat/Conv2d_1x1"
  top: "block17_5/eltwise"
  eltwise_param {
    operation: SUM
    coeff: 1
    coeff: 0.1
  }
}
layer {
  name: "block17_5/eltwise/relu"
  type: "ReLU"
  bottom: "block17_5/eltwise"
  top: "block17_5/eltwise"
}
layer {
  name: "block17_6/branch_0/Conv2d_1x1"
  type: "ConvolutionData"
  bottom: "block17_5/eltwise"
  top: "block17_6/branch_0/Conv2d_1x1"
  param {
    lr_mult: 1
    decay_mult: 1
  }
  convolution_param {
    num_output: 192
    bias_term: false
    pad: 0
    kernel_size: 1
    stride: 1
    weight_filler {
      type: "msra"
    }
  }
}
layer {
  name: "block17_6/branch_0/Conv2d_1x1/bn"
  type: "BNData"
  bottom: "block17_6/branch_0/Conv2d_1x1"
  top: "block17_6/branch_0/Conv2d_1x1/bn"
  param {
    lr_mult: 1
    decay_mult: 0
  }
  param {
    lr_mult: 1
    decay_mult: 0
  }
  param {
    lr_mult: 0
    decay_mult: 0
  }
  param {
    lr_mult: 0
    decay_mult: 0
  }
  bn_param {
    scale_filler {
      type: "constant"
      value: 1
    }
    shift_filler {
      type: "constant"
      value: 0
    }
    decay: 0.05
    moving_average: true
  }
}
layer {
  name: "block17_6/branch_0/Conv2d_1x1/bn/relu"
  type: "ReLU"
  bottom: "block17_6/branch_0/Conv2d_1x1/bn"
  top: "block17_6/branch_0/Conv2d_1x1/bn"
}
layer {
  name: "block17_6/branch_1/Conv2d_0a_1x1"
  type: "ConvolutionData"
  bottom: "block17_5/eltwise"
  top: "block17_6/branch_1/Conv2d_0a_1x1"
  param {
    lr_mult: 1
    decay_mult: 1
  }
  convolution_param {
    num_output: 128
    bias_term: false
    pad: 0
    kernel_size: 1
    stride: 1
    weight_filler {
      type: "msra"
    }
  }
}
layer {
  name: "block17_6/branch_1/Conv2d_0a_1x1/bn"
  type: "BNData"
  bottom: "block17_6/branch_1/Conv2d_0a_1x1"
  top: "block17_6/branch_1/Conv2d_0a_1x1/bn"
  param {
    lr_mult: 1
    decay_mult: 0
  }
  param {
    lr_mult: 1
    decay_mult: 0
  }
  param {
    lr_mult: 0
    decay_mult: 0
  }
  param {
    lr_mult: 0
    decay_mult: 0
  }
  bn_param {
    scale_filler {
      type: "constant"
      value: 1
    }
    shift_filler {
      type: "constant"
      value: 0
    }
    decay: 0.05
    moving_average: true
  }
}
layer {
  name: "block17_6/branch_1/Conv2d_0a_1x1/bn/relu"
  type: "ReLU"
  bottom: "block17_6/branch_1/Conv2d_0a_1x1/bn"
  top: "block17_6/branch_1/Conv2d_0a_1x1/bn"
}
layer {
  name: "block17_6/branch_1/Conv2d_0b_1x7"
  type: "ConvolutionData"
  bottom: "block17_6/branch_1/Conv2d_0a_1x1/bn"
  top: "block17_6/branch_1/Conv2d_0b_1x7"
  param {
    lr_mult: 1
    decay_mult: 1
  }
  convolution_param {
    num_output: 160
    bias_term: false
    stride: 1
    weight_filler {
      type: "msra"
    }
    pad_h: 0
    pad_w: 3
    kernel_h: 1
    kernel_w: 7
  }
}
layer {
  name: "block17_6/branch_1/Conv2d_0b_1x7/bn"
  type: "BNData"
  bottom: "block17_6/branch_1/Conv2d_0b_1x7"
  top: "block17_6/branch_1/Conv2d_0b_1x7/bn"
  param {
    lr_mult: 1
    decay_mult: 0
  }
  param {
    lr_mult: 1
    decay_mult: 0
  }
  param {
    lr_mult: 0
    decay_mult: 0
  }
  param {
    lr_mult: 0
    decay_mult: 0
  }
  bn_param {
    scale_filler {
      type: "constant"
      value: 1
    }
    shift_filler {
      type: "constant"
      value: 0
    }
    decay: 0.05
    moving_average: true
  }
}
layer {
  name: "block17_6/branch_1/Conv2d_0b_1x7/bn/relu"
  type: "ReLU"
  bottom: "block17_6/branch_1/Conv2d_0b_1x7/bn"
  top: "block17_6/branch_1/Conv2d_0b_1x7/bn"
}
layer {
  name: "block17_6/branch_1/Conv2d_0c_7x1"
  type: "ConvolutionData"
  bottom: "block17_6/branch_1/Conv2d_0b_1x7/bn"
  top: "block17_6/branch_1/Conv2d_0c_7x1"
  param {
    lr_mult: 1
    decay_mult: 1
  }
  convolution_param {
    num_output: 192
    bias_term: false
    stride: 1
    weight_filler {
      type: "msra"
    }
    pad_h: 3
    pad_w: 0
    kernel_h: 7
    kernel_w: 1
  }
}
layer {
  name: "block17_6/branch_1/Conv2d_0c_7x1/bn"
  type: "BNData"
  bottom: "block17_6/branch_1/Conv2d_0c_7x1"
  top: "block17_6/branch_1/Conv2d_0c_7x1/bn"
  param {
    lr_mult: 1
    decay_mult: 0
  }
  param {
    lr_mult: 1
    decay_mult: 0
  }
  param {
    lr_mult: 0
    decay_mult: 0
  }
  param {
    lr_mult: 0
    decay_mult: 0
  }
  bn_param {
    scale_filler {
      type: "constant"
      value: 1
    }
    shift_filler {
      type: "constant"
      value: 0
    }
    decay: 0.05
    moving_average: true
  }
}
layer {
  name: "block17_6/branch_1/Conv2d_0c_7x1/bn/relu"
  type: "ReLU"
  bottom: "block17_6/branch_1/Conv2d_0c_7x1/bn"
  top: "block17_6/branch_1/Conv2d_0c_7x1/bn"
}
layer {
  name: "block17_6/concat"
  type: "Concat"
  bottom: "block17_6/branch_0/Conv2d_1x1/bn"
  bottom: "block17_6/branch_1/Conv2d_0c_7x1/bn"
  top: "block17_6/concat"
  concat_param {
    axis: 1
  }
}
layer {
  name: "block17_6/concat/Conv2d_1x1"
  type: "ConvolutionData"
  bottom: "block17_6/concat"
  top: "block17_6/concat/Conv2d_1x1"
  param {
    lr_mult: 1
    decay_mult: 1
  }
  param {
    lr_mult: 2
    decay_mult: 0
  }
  convolution_param {
    num_output: 1088
    bias_term: true
    pad: 0
    kernel_size: 1
    stride: 1
    weight_filler {
      type: "msra"
    }
    bias_filler {
      type: "constant"
      value: 0.2
    }
  }
}
layer {
  name: "block17_6/eltwise"
  type: "Eltwise"
  bottom: "block17_5/eltwise"
  bottom: "block17_6/concat/Conv2d_1x1"
  top: "block17_6/eltwise"
  eltwise_param {
    operation: SUM
    coeff: 1
    coeff: 0.1
  }
}
layer {
  name: "block17_6/eltwise/relu"
  type: "ReLU"
  bottom: "block17_6/eltwise"
  top: "block17_6/eltwise"
}
layer {
  name: "block17_7/branch_0/Conv2d_1x1"
  type: "ConvolutionData"
  bottom: "block17_6/eltwise"
  top: "block17_7/branch_0/Conv2d_1x1"
  param {
    lr_mult: 1
    decay_mult: 1
  }
  convolution_param {
    num_output: 192
    bias_term: false
    pad: 0
    kernel_size: 1
    stride: 1
    weight_filler {
      type: "msra"
    }
  }
}
layer {
  name: "block17_7/branch_0/Conv2d_1x1/bn"
  type: "BNData"
  bottom: "block17_7/branch_0/Conv2d_1x1"
  top: "block17_7/branch_0/Conv2d_1x1/bn"
  param {
    lr_mult: 1
    decay_mult: 0
  }
  param {
    lr_mult: 1
    decay_mult: 0
  }
  param {
    lr_mult: 0
    decay_mult: 0
  }
  param {
    lr_mult: 0
    decay_mult: 0
  }
  bn_param {
    scale_filler {
      type: "constant"
      value: 1
    }
    shift_filler {
      type: "constant"
      value: 0
    }
    decay: 0.05
    moving_average: true
  }
}
layer {
  name: "block17_7/branch_0/Conv2d_1x1/bn/relu"
  type: "ReLU"
  bottom: "block17_7/branch_0/Conv2d_1x1/bn"
  top: "block17_7/branch_0/Conv2d_1x1/bn"
}
layer {
  name: "block17_7/branch_1/Conv2d_0a_1x1"
  type: "ConvolutionData"
  bottom: "block17_6/eltwise"
  top: "block17_7/branch_1/Conv2d_0a_1x1"
  param {
    lr_mult: 1
    decay_mult: 1
  }
  convolution_param {
    num_output: 128
    bias_term: false
    pad: 0
    kernel_size: 1
    stride: 1
    weight_filler {
      type: "msra"
    }
  }
}
layer {
  name: "block17_7/branch_1/Conv2d_0a_1x1/bn"
  type: "BNData"
  bottom: "block17_7/branch_1/Conv2d_0a_1x1"
  top: "block17_7/branch_1/Conv2d_0a_1x1/bn"
  param {
    lr_mult: 1
    decay_mult: 0
  }
  param {
    lr_mult: 1
    decay_mult: 0
  }
  param {
    lr_mult: 0
    decay_mult: 0
  }
  param {
    lr_mult: 0
    decay_mult: 0
  }
  bn_param {
    scale_filler {
      type: "constant"
      value: 1
    }
    shift_filler {
      type: "constant"
      value: 0
    }
    decay: 0.05
    moving_average: true
  }
}
layer {
  name: "block17_7/branch_1/Conv2d_0a_1x1/bn/relu"
  type: "ReLU"
  bottom: "block17_7/branch_1/Conv2d_0a_1x1/bn"
  top: "block17_7/branch_1/Conv2d_0a_1x1/bn"
}
layer {
  name: "block17_7/branch_1/Conv2d_0b_1x7"
  type: "ConvolutionData"
  bottom: "block17_7/branch_1/Conv2d_0a_1x1/bn"
  top: "block17_7/branch_1/Conv2d_0b_1x7"
  param {
    lr_mult: 1
    decay_mult: 1
  }
  convolution_param {
    num_output: 160
    bias_term: false
    stride: 1
    weight_filler {
      type: "msra"
    }
    pad_h: 0
    pad_w: 3
    kernel_h: 1
    kernel_w: 7
  }
}
layer {
  name: "block17_7/branch_1/Conv2d_0b_1x7/bn"
  type: "BNData"
  bottom: "block17_7/branch_1/Conv2d_0b_1x7"
  top: "block17_7/branch_1/Conv2d_0b_1x7/bn"
  param {
    lr_mult: 1
    decay_mult: 0
  }
  param {
    lr_mult: 1
    decay_mult: 0
  }
  param {
    lr_mult: 0
    decay_mult: 0
  }
  param {
    lr_mult: 0
    decay_mult: 0
  }
  bn_param {
    scale_filler {
      type: "constant"
      value: 1
    }
    shift_filler {
      type: "constant"
      value: 0
    }
    decay: 0.05
    moving_average: true
  }
}
layer {
  name: "block17_7/branch_1/Conv2d_0b_1x7/bn/relu"
  type: "ReLU"
  bottom: "block17_7/branch_1/Conv2d_0b_1x7/bn"
  top: "block17_7/branch_1/Conv2d_0b_1x7/bn"
}
layer {
  name: "block17_7/branch_1/Conv2d_0c_7x1"
  type: "ConvolutionData"
  bottom: "block17_7/branch_1/Conv2d_0b_1x7/bn"
  top: "block17_7/branch_1/Conv2d_0c_7x1"
  param {
    lr_mult: 1
    decay_mult: 1
  }
  convolution_param {
    num_output: 192
    bias_term: false
    stride: 1
    weight_filler {
      type: "msra"
    }
    pad_h: 3
    pad_w: 0
    kernel_h: 7
    kernel_w: 1
  }
}
layer {
  name: "block17_7/branch_1/Conv2d_0c_7x1/bn"
  type: "BNData"
  bottom: "block17_7/branch_1/Conv2d_0c_7x1"
  top: "block17_7/branch_1/Conv2d_0c_7x1/bn"
  param {
    lr_mult: 1
    decay_mult: 0
  }
  param {
    lr_mult: 1
    decay_mult: 0
  }
  param {
    lr_mult: 0
    decay_mult: 0
  }
  param {
    lr_mult: 0
    decay_mult: 0
  }
  bn_param {
    scale_filler {
      type: "constant"
      value: 1
    }
    shift_filler {
      type: "constant"
      value: 0
    }
    decay: 0.05
    moving_average: true
  }
}
layer {
  name: "block17_7/branch_1/Conv2d_0c_7x1/bn/relu"
  type: "ReLU"
  bottom: "block17_7/branch_1/Conv2d_0c_7x1/bn"
  top: "block17_7/branch_1/Conv2d_0c_7x1/bn"
}
layer {
  name: "block17_7/concat"
  type: "Concat"
  bottom: "block17_7/branch_0/Conv2d_1x1/bn"
  bottom: "block17_7/branch_1/Conv2d_0c_7x1/bn"
  top: "block17_7/concat"
  concat_param {
    axis: 1
  }
}
layer {
  name: "block17_7/concat/Conv2d_1x1"
  type: "ConvolutionData"
  bottom: "block17_7/concat"
  top: "block17_7/concat/Conv2d_1x1"
  param {
    lr_mult: 1
    decay_mult: 1
  }
  param {
    lr_mult: 2
    decay_mult: 0
  }
  convolution_param {
    num_output: 1088
    bias_term: true
    pad: 0
    kernel_size: 1
    stride: 1
    weight_filler {
      type: "msra"
    }
    bias_filler {
      type: "constant"
      value: 0.2
    }
  }
}
layer {
  name: "block17_7/eltwise"
  type: "Eltwise"
  bottom: "block17_6/eltwise"
  bottom: "block17_7/concat/Conv2d_1x1"
  top: "block17_7/eltwise"
  eltwise_param {
    operation: SUM
    coeff: 1
    coeff: 0.1
  }
}
layer {
  name: "block17_7/eltwise/relu"
  type: "ReLU"
  bottom: "block17_7/eltwise"
  top: "block17_7/eltwise"
}
layer {
  name: "block17_8/branch_0/Conv2d_1x1"
  type: "ConvolutionData"
  bottom: "block17_7/eltwise"
  top: "block17_8/branch_0/Conv2d_1x1"
  param {
    lr_mult: 1
    decay_mult: 1
  }
  convolution_param {
    num_output: 192
    bias_term: false
    pad: 0
    kernel_size: 1
    stride: 1
    weight_filler {
      type: "msra"
    }
  }
}
layer {
  name: "block17_8/branch_0/Conv2d_1x1/bn"
  type: "BNData"
  bottom: "block17_8/branch_0/Conv2d_1x1"
  top: "block17_8/branch_0/Conv2d_1x1/bn"
  param {
    lr_mult: 1
    decay_mult: 0
  }
  param {
    lr_mult: 1
    decay_mult: 0
  }
  param {
    lr_mult: 0
    decay_mult: 0
  }
  param {
    lr_mult: 0
    decay_mult: 0
  }
  bn_param {
    scale_filler {
      type: "constant"
      value: 1
    }
    shift_filler {
      type: "constant"
      value: 0
    }
    decay: 0.05
    moving_average: true
  }
}
layer {
  name: "block17_8/branch_0/Conv2d_1x1/bn/relu"
  type: "ReLU"
  bottom: "block17_8/branch_0/Conv2d_1x1/bn"
  top: "block17_8/branch_0/Conv2d_1x1/bn"
}
layer {
  name: "block17_8/branch_1/Conv2d_0a_1x1"
  type: "ConvolutionData"
  bottom: "block17_7/eltwise"
  top: "block17_8/branch_1/Conv2d_0a_1x1"
  param {
    lr_mult: 1
    decay_mult: 1
  }
  convolution_param {
    num_output: 128
    bias_term: false
    pad: 0
    kernel_size: 1
    stride: 1
    weight_filler {
      type: "msra"
    }
  }
}
layer {
  name: "block17_8/branch_1/Conv2d_0a_1x1/bn"
  type: "BNData"
  bottom: "block17_8/branch_1/Conv2d_0a_1x1"
  top: "block17_8/branch_1/Conv2d_0a_1x1/bn"
  param {
    lr_mult: 1
    decay_mult: 0
  }
  param {
    lr_mult: 1
    decay_mult: 0
  }
  param {
    lr_mult: 0
    decay_mult: 0
  }
  param {
    lr_mult: 0
    decay_mult: 0
  }
  bn_param {
    scale_filler {
      type: "constant"
      value: 1
    }
    shift_filler {
      type: "constant"
      value: 0
    }
    decay: 0.05
    moving_average: true
  }
}
layer {
  name: "block17_8/branch_1/Conv2d_0a_1x1/bn/relu"
  type: "ReLU"
  bottom: "block17_8/branch_1/Conv2d_0a_1x1/bn"
  top: "block17_8/branch_1/Conv2d_0a_1x1/bn"
}
layer {
  name: "block17_8/branch_1/Conv2d_0b_1x7"
  type: "ConvolutionData"
  bottom: "block17_8/branch_1/Conv2d_0a_1x1/bn"
  top: "block17_8/branch_1/Conv2d_0b_1x7"
  param {
    lr_mult: 1
    decay_mult: 1
  }
  convolution_param {
    num_output: 160
    bias_term: false
    stride: 1
    weight_filler {
      type: "msra"
    }
    pad_h: 0
    pad_w: 3
    kernel_h: 1
    kernel_w: 7
  }
}
layer {
  name: "block17_8/branch_1/Conv2d_0b_1x7/bn"
  type: "BNData"
  bottom: "block17_8/branch_1/Conv2d_0b_1x7"
  top: "block17_8/branch_1/Conv2d_0b_1x7/bn"
  param {
    lr_mult: 1
    decay_mult: 0
  }
  param {
    lr_mult: 1
    decay_mult: 0
  }
  param {
    lr_mult: 0
    decay_mult: 0
  }
  param {
    lr_mult: 0
    decay_mult: 0
  }
  bn_param {
    scale_filler {
      type: "constant"
      value: 1
    }
    shift_filler {
      type: "constant"
      value: 0
    }
    decay: 0.05
    moving_average: true
  }
}
layer {
  name: "block17_8/branch_1/Conv2d_0b_1x7/bn/relu"
  type: "ReLU"
  bottom: "block17_8/branch_1/Conv2d_0b_1x7/bn"
  top: "block17_8/branch_1/Conv2d_0b_1x7/bn"
}
layer {
  name: "block17_8/branch_1/Conv2d_0c_7x1"
  type: "ConvolutionData"
  bottom: "block17_8/branch_1/Conv2d_0b_1x7/bn"
  top: "block17_8/branch_1/Conv2d_0c_7x1"
  param {
    lr_mult: 1
    decay_mult: 1
  }
  convolution_param {
    num_output: 192
    bias_term: false
    stride: 1
    weight_filler {
      type: "msra"
    }
    pad_h: 3
    pad_w: 0
    kernel_h: 7
    kernel_w: 1
  }
}
layer {
  name: "block17_8/branch_1/Conv2d_0c_7x1/bn"
  type: "BNData"
  bottom: "block17_8/branch_1/Conv2d_0c_7x1"
  top: "block17_8/branch_1/Conv2d_0c_7x1/bn"
  param {
    lr_mult: 1
    decay_mult: 0
  }
  param {
    lr_mult: 1
    decay_mult: 0
  }
  param {
    lr_mult: 0
    decay_mult: 0
  }
  param {
    lr_mult: 0
    decay_mult: 0
  }
  bn_param {
    scale_filler {
      type: "constant"
      value: 1
    }
    shift_filler {
      type: "constant"
      value: 0
    }
    decay: 0.05
    moving_average: true
  }
}
layer {
  name: "block17_8/branch_1/Conv2d_0c_7x1/bn/relu"
  type: "ReLU"
  bottom: "block17_8/branch_1/Conv2d_0c_7x1/bn"
  top: "block17_8/branch_1/Conv2d_0c_7x1/bn"
}
layer {
  name: "block17_8/concat"
  type: "Concat"
  bottom: "block17_8/branch_0/Conv2d_1x1/bn"
  bottom: "block17_8/branch_1/Conv2d_0c_7x1/bn"
  top: "block17_8/concat"
  concat_param {
    axis: 1
  }
}
layer {
  name: "block17_8/concat/Conv2d_1x1"
  type: "ConvolutionData"
  bottom: "block17_8/concat"
  top: "block17_8/concat/Conv2d_1x1"
  param {
    lr_mult: 1
    decay_mult: 1
  }
  param {
    lr_mult: 2
    decay_mult: 0
  }
  convolution_param {
    num_output: 1088
    bias_term: true
    pad: 0
    kernel_size: 1
    stride: 1
    weight_filler {
      type: "msra"
    }
    bias_filler {
      type: "constant"
      value: 0.2
    }
  }
}
layer {
  name: "block17_8/eltwise"
  type: "Eltwise"
  bottom: "block17_7/eltwise"
  bottom: "block17_8/concat/Conv2d_1x1"
  top: "block17_8/eltwise"
  eltwise_param {
    operation: SUM
    coeff: 1
    coeff: 0.1
  }
}
layer {
  name: "block17_8/eltwise/relu"
  type: "ReLU"
  bottom: "block17_8/eltwise"
  top: "block17_8/eltwise"
}
layer {
  name: "block17_9/branch_0/Conv2d_1x1"
  type: "ConvolutionData"
  bottom: "block17_8/eltwise"
  top: "block17_9/branch_0/Conv2d_1x1"
  param {
    lr_mult: 1
    decay_mult: 1
  }
  convolution_param {
    num_output: 192
    bias_term: false
    pad: 0
    kernel_size: 1
    stride: 1
    weight_filler {
      type: "msra"
    }
  }
}
layer {
  name: "block17_9/branch_0/Conv2d_1x1/bn"
  type: "BNData"
  bottom: "block17_9/branch_0/Conv2d_1x1"
  top: "block17_9/branch_0/Conv2d_1x1/bn"
  param {
    lr_mult: 1
    decay_mult: 0
  }
  param {
    lr_mult: 1
    decay_mult: 0
  }
  param {
    lr_mult: 0
    decay_mult: 0
  }
  param {
    lr_mult: 0
    decay_mult: 0
  }
  bn_param {
    scale_filler {
      type: "constant"
      value: 1
    }
    shift_filler {
      type: "constant"
      value: 0
    }
    decay: 0.05
    moving_average: true
  }
}
layer {
  name: "block17_9/branch_0/Conv2d_1x1/bn/relu"
  type: "ReLU"
  bottom: "block17_9/branch_0/Conv2d_1x1/bn"
  top: "block17_9/branch_0/Conv2d_1x1/bn"
}
layer {
  name: "block17_9/branch_1/Conv2d_0a_1x1"
  type: "ConvolutionData"
  bottom: "block17_8/eltwise"
  top: "block17_9/branch_1/Conv2d_0a_1x1"
  param {
    lr_mult: 1
    decay_mult: 1
  }
  convolution_param {
    num_output: 128
    bias_term: false
    pad: 0
    kernel_size: 1
    stride: 1
    weight_filler {
      type: "msra"
    }
  }
}
layer {
  name: "block17_9/branch_1/Conv2d_0a_1x1/bn"
  type: "BNData"
  bottom: "block17_9/branch_1/Conv2d_0a_1x1"
  top: "block17_9/branch_1/Conv2d_0a_1x1/bn"
  param {
    lr_mult: 1
    decay_mult: 0
  }
  param {
    lr_mult: 1
    decay_mult: 0
  }
  param {
    lr_mult: 0
    decay_mult: 0
  }
  param {
    lr_mult: 0
    decay_mult: 0
  }
  bn_param {
    scale_filler {
      type: "constant"
      value: 1
    }
    shift_filler {
      type: "constant"
      value: 0
    }
    decay: 0.05
    moving_average: true
  }
}
layer {
  name: "block17_9/branch_1/Conv2d_0a_1x1/bn/relu"
  type: "ReLU"
  bottom: "block17_9/branch_1/Conv2d_0a_1x1/bn"
  top: "block17_9/branch_1/Conv2d_0a_1x1/bn"
}
layer {
  name: "block17_9/branch_1/Conv2d_0b_1x7"
  type: "ConvolutionData"
  bottom: "block17_9/branch_1/Conv2d_0a_1x1/bn"
  top: "block17_9/branch_1/Conv2d_0b_1x7"
  param {
    lr_mult: 1
    decay_mult: 1
  }
  convolution_param {
    num_output: 160
    bias_term: false
    stride: 1
    weight_filler {
      type: "msra"
    }
    pad_h: 0
    pad_w: 3
    kernel_h: 1
    kernel_w: 7
  }
}
layer {
  name: "block17_9/branch_1/Conv2d_0b_1x7/bn"
  type: "BNData"
  bottom: "block17_9/branch_1/Conv2d_0b_1x7"
  top: "block17_9/branch_1/Conv2d_0b_1x7/bn"
  param {
    lr_mult: 1
    decay_mult: 0
  }
  param {
    lr_mult: 1
    decay_mult: 0
  }
  param {
    lr_mult: 0
    decay_mult: 0
  }
  param {
    lr_mult: 0
    decay_mult: 0
  }
  bn_param {
    scale_filler {
      type: "constant"
      value: 1
    }
    shift_filler {
      type: "constant"
      value: 0
    }
    decay: 0.05
    moving_average: true
  }
}
layer {
  name: "block17_9/branch_1/Conv2d_0b_1x7/bn/relu"
  type: "ReLU"
  bottom: "block17_9/branch_1/Conv2d_0b_1x7/bn"
  top: "block17_9/branch_1/Conv2d_0b_1x7/bn"
}
layer {
  name: "block17_9/branch_1/Conv2d_0c_7x1"
  type: "ConvolutionData"
  bottom: "block17_9/branch_1/Conv2d_0b_1x7/bn"
  top: "block17_9/branch_1/Conv2d_0c_7x1"
  param {
    lr_mult: 1
    decay_mult: 1
  }
  convolution_param {
    num_output: 192
    bias_term: false
    stride: 1
    weight_filler {
      type: "msra"
    }
    pad_h: 3
    pad_w: 0
    kernel_h: 7
    kernel_w: 1
  }
}
layer {
  name: "block17_9/branch_1/Conv2d_0c_7x1/bn"
  type: "BNData"
  bottom: "block17_9/branch_1/Conv2d_0c_7x1"
  top: "block17_9/branch_1/Conv2d_0c_7x1/bn"
  param {
    lr_mult: 1
    decay_mult: 0
  }
  param {
    lr_mult: 1
    decay_mult: 0
  }
  param {
    lr_mult: 0
    decay_mult: 0
  }
  param {
    lr_mult: 0
    decay_mult: 0
  }
  bn_param {
    scale_filler {
      type: "constant"
      value: 1
    }
    shift_filler {
      type: "constant"
      value: 0
    }
    decay: 0.05
    moving_average: true
  }
}
layer {
  name: "block17_9/branch_1/Conv2d_0c_7x1/bn/relu"
  type: "ReLU"
  bottom: "block17_9/branch_1/Conv2d_0c_7x1/bn"
  top: "block17_9/branch_1/Conv2d_0c_7x1/bn"
}
layer {
  name: "block17_9/concat"
  type: "Concat"
  bottom: "block17_9/branch_0/Conv2d_1x1/bn"
  bottom: "block17_9/branch_1/Conv2d_0c_7x1/bn"
  top: "block17_9/concat"
  concat_param {
    axis: 1
  }
}
layer {
  name: "block17_9/concat/Conv2d_1x1"
  type: "ConvolutionData"
  bottom: "block17_9/concat"
  top: "block17_9/concat/Conv2d_1x1"
  param {
    lr_mult: 1
    decay_mult: 1
  }
  param {
    lr_mult: 2
    decay_mult: 0
  }
  convolution_param {
    num_output: 1088
    bias_term: true
    pad: 0
    kernel_size: 1
    stride: 1
    weight_filler {
      type: "msra"
    }
    bias_filler {
      type: "constant"
      value: 0.2
    }
  }
}
layer {
  name: "block17_9/eltwise"
  type: "Eltwise"
  bottom: "block17_8/eltwise"
  bottom: "block17_9/concat/Conv2d_1x1"
  top: "block17_9/eltwise"
  eltwise_param {
    operation: SUM
    coeff: 1
    coeff: 0.1
  }
}
layer {
  name: "block17_9/eltwise/relu"
  type: "ReLU"
  bottom: "block17_9/eltwise"
  top: "block17_9/eltwise"
}
layer {
  name: "block17_10/branch_0/Conv2d_1x1"
  type: "ConvolutionData"
  bottom: "block17_9/eltwise"
  top: "block17_10/branch_0/Conv2d_1x1"
  param {
    lr_mult: 1
    decay_mult: 1
  }
  convolution_param {
    num_output: 192
    bias_term: false
    pad: 0
    kernel_size: 1
    stride: 1
    weight_filler {
      type: "msra"
    }
  }
}
layer {
  name: "block17_10/branch_0/Conv2d_1x1/bn"
  type: "BNData"
  bottom: "block17_10/branch_0/Conv2d_1x1"
  top: "block17_10/branch_0/Conv2d_1x1/bn"
  param {
    lr_mult: 1
    decay_mult: 0
  }
  param {
    lr_mult: 1
    decay_mult: 0
  }
  param {
    lr_mult: 0
    decay_mult: 0
  }
  param {
    lr_mult: 0
    decay_mult: 0
  }
  bn_param {
    scale_filler {
      type: "constant"
      value: 1
    }
    shift_filler {
      type: "constant"
      value: 0
    }
    decay: 0.05
    moving_average: true
  }
}
layer {
  name: "block17_10/branch_0/Conv2d_1x1/bn/relu"
  type: "ReLU"
  bottom: "block17_10/branch_0/Conv2d_1x1/bn"
  top: "block17_10/branch_0/Conv2d_1x1/bn"
}
layer {
  name: "block17_10/branch_1/Conv2d_0a_1x1"
  type: "ConvolutionData"
  bottom: "block17_9/eltwise"
  top: "block17_10/branch_1/Conv2d_0a_1x1"
  param {
    lr_mult: 1
    decay_mult: 1
  }
  convolution_param {
    num_output: 128
    bias_term: false
    pad: 0
    kernel_size: 1
    stride: 1
    weight_filler {
      type: "msra"
    }
  }
}
layer {
  name: "block17_10/branch_1/Conv2d_0a_1x1/bn"
  type: "BNData"
  bottom: "block17_10/branch_1/Conv2d_0a_1x1"
  top: "block17_10/branch_1/Conv2d_0a_1x1/bn"
  param {
    lr_mult: 1
    decay_mult: 0
  }
  param {
    lr_mult: 1
    decay_mult: 0
  }
  param {
    lr_mult: 0
    decay_mult: 0
  }
  param {
    lr_mult: 0
    decay_mult: 0
  }
  bn_param {
    scale_filler {
      type: "constant"
      value: 1
    }
    shift_filler {
      type: "constant"
      value: 0
    }
    decay: 0.05
    moving_average: true
  }
}
layer {
  name: "block17_10/branch_1/Conv2d_0a_1x1/bn/relu"
  type: "ReLU"
  bottom: "block17_10/branch_1/Conv2d_0a_1x1/bn"
  top: "block17_10/branch_1/Conv2d_0a_1x1/bn"
}
layer {
  name: "block17_10/branch_1/Conv2d_0b_1x7"
  type: "ConvolutionData"
  bottom: "block17_10/branch_1/Conv2d_0a_1x1/bn"
  top: "block17_10/branch_1/Conv2d_0b_1x7"
  param {
    lr_mult: 1
    decay_mult: 1
  }
  convolution_param {
    num_output: 160
    bias_term: false
    stride: 1
    weight_filler {
      type: "msra"
    }
    pad_h: 0
    pad_w: 3
    kernel_h: 1
    kernel_w: 7
  }
}
layer {
  name: "block17_10/branch_1/Conv2d_0b_1x7/bn"
  type: "BNData"
  bottom: "block17_10/branch_1/Conv2d_0b_1x7"
  top: "block17_10/branch_1/Conv2d_0b_1x7/bn"
  param {
    lr_mult: 1
    decay_mult: 0
  }
  param {
    lr_mult: 1
    decay_mult: 0
  }
  param {
    lr_mult: 0
    decay_mult: 0
  }
  param {
    lr_mult: 0
    decay_mult: 0
  }
  bn_param {
    scale_filler {
      type: "constant"
      value: 1
    }
    shift_filler {
      type: "constant"
      value: 0
    }
    decay: 0.05
    moving_average: true
  }
}
layer {
  name: "block17_10/branch_1/Conv2d_0b_1x7/bn/relu"
  type: "ReLU"
  bottom: "block17_10/branch_1/Conv2d_0b_1x7/bn"
  top: "block17_10/branch_1/Conv2d_0b_1x7/bn"
}
layer {
  name: "block17_10/branch_1/Conv2d_0c_7x1"
  type: "ConvolutionData"
  bottom: "block17_10/branch_1/Conv2d_0b_1x7/bn"
  top: "block17_10/branch_1/Conv2d_0c_7x1"
  param {
    lr_mult: 1
    decay_mult: 1
  }
  convolution_param {
    num_output: 192
    bias_term: false
    stride: 1
    weight_filler {
      type: "msra"
    }
    pad_h: 3
    pad_w: 0
    kernel_h: 7
    kernel_w: 1
  }
}
layer {
  name: "block17_10/branch_1/Conv2d_0c_7x1/bn"
  type: "BNData"
  bottom: "block17_10/branch_1/Conv2d_0c_7x1"
  top: "block17_10/branch_1/Conv2d_0c_7x1/bn"
  param {
    lr_mult: 1
    decay_mult: 0
  }
  param {
    lr_mult: 1
    decay_mult: 0
  }
  param {
    lr_mult: 0
    decay_mult: 0
  }
  param {
    lr_mult: 0
    decay_mult: 0
  }
  bn_param {
    scale_filler {
      type: "constant"
      value: 1
    }
    shift_filler {
      type: "constant"
      value: 0
    }
    decay: 0.05
    moving_average: true
  }
}
layer {
  name: "block17_10/branch_1/Conv2d_0c_7x1/bn/relu"
  type: "ReLU"
  bottom: "block17_10/branch_1/Conv2d_0c_7x1/bn"
  top: "block17_10/branch_1/Conv2d_0c_7x1/bn"
}
layer {
  name: "block17_10/concat"
  type: "Concat"
  bottom: "block17_10/branch_0/Conv2d_1x1/bn"
  bottom: "block17_10/branch_1/Conv2d_0c_7x1/bn"
  top: "block17_10/concat"
  concat_param {
    axis: 1
  }
}
layer {
  name: "block17_10/concat/Conv2d_1x1"
  type: "ConvolutionData"
  bottom: "block17_10/concat"
  top: "block17_10/concat/Conv2d_1x1"
  param {
    lr_mult: 1
    decay_mult: 1
  }
  param {
    lr_mult: 2
    decay_mult: 0
  }
  convolution_param {
    num_output: 1088
    bias_term: true
    pad: 0
    kernel_size: 1
    stride: 1
    weight_filler {
      type: "msra"
    }
    bias_filler {
      type: "constant"
      value: 0.2
    }
  }
}
layer {
  name: "block17_10/eltwise"
  type: "Eltwise"
  bottom: "block17_9/eltwise"
  bottom: "block17_10/concat/Conv2d_1x1"
  top: "block17_10/eltwise"
  eltwise_param {
    operation: SUM
    coeff: 1
    coeff: 0.1
  }
}
layer {
  name: "block17_10/eltwise/relu"
  type: "ReLU"
  bottom: "block17_10/eltwise"
  top: "block17_10/eltwise"
}
layer {
  name: "block17_11/branch_0/Conv2d_1x1"
  type: "ConvolutionData"
  bottom: "block17_10/eltwise"
  top: "block17_11/branch_0/Conv2d_1x1"
  param {
    lr_mult: 1
    decay_mult: 1
  }
  convolution_param {
    num_output: 192
    bias_term: false
    pad: 0
    kernel_size: 1
    stride: 1
    weight_filler {
      type: "msra"
    }
  }
}
layer {
  name: "block17_11/branch_0/Conv2d_1x1/bn"
  type: "BNData"
  bottom: "block17_11/branch_0/Conv2d_1x1"
  top: "block17_11/branch_0/Conv2d_1x1/bn"
  param {
    lr_mult: 1
    decay_mult: 0
  }
  param {
    lr_mult: 1
    decay_mult: 0
  }
  param {
    lr_mult: 0
    decay_mult: 0
  }
  param {
    lr_mult: 0
    decay_mult: 0
  }
  bn_param {
    scale_filler {
      type: "constant"
      value: 1
    }
    shift_filler {
      type: "constant"
      value: 0
    }
    decay: 0.05
    moving_average: true
  }
}
layer {
  name: "block17_11/branch_0/Conv2d_1x1/bn/relu"
  type: "ReLU"
  bottom: "block17_11/branch_0/Conv2d_1x1/bn"
  top: "block17_11/branch_0/Conv2d_1x1/bn"
}
layer {
  name: "block17_11/branch_1/Conv2d_0a_1x1"
  type: "ConvolutionData"
  bottom: "block17_10/eltwise"
  top: "block17_11/branch_1/Conv2d_0a_1x1"
  param {
    lr_mult: 1
    decay_mult: 1
  }
  convolution_param {
    num_output: 128
    bias_term: false
    pad: 0
    kernel_size: 1
    stride: 1
    weight_filler {
      type: "msra"
    }
  }
}
layer {
  name: "block17_11/branch_1/Conv2d_0a_1x1/bn"
  type: "BNData"
  bottom: "block17_11/branch_1/Conv2d_0a_1x1"
  top: "block17_11/branch_1/Conv2d_0a_1x1/bn"
  param {
    lr_mult: 1
    decay_mult: 0
  }
  param {
    lr_mult: 1
    decay_mult: 0
  }
  param {
    lr_mult: 0
    decay_mult: 0
  }
  param {
    lr_mult: 0
    decay_mult: 0
  }
  bn_param {
    scale_filler {
      type: "constant"
      value: 1
    }
    shift_filler {
      type: "constant"
      value: 0
    }
    decay: 0.05
    moving_average: true
  }
}
layer {
  name: "block17_11/branch_1/Conv2d_0a_1x1/bn/relu"
  type: "ReLU"
  bottom: "block17_11/branch_1/Conv2d_0a_1x1/bn"
  top: "block17_11/branch_1/Conv2d_0a_1x1/bn"
}
layer {
  name: "block17_11/branch_1/Conv2d_0b_1x7"
  type: "ConvolutionData"
  bottom: "block17_11/branch_1/Conv2d_0a_1x1/bn"
  top: "block17_11/branch_1/Conv2d_0b_1x7"
  param {
    lr_mult: 1
    decay_mult: 1
  }
  convolution_param {
    num_output: 160
    bias_term: false
    stride: 1
    weight_filler {
      type: "msra"
    }
    pad_h: 0
    pad_w: 3
    kernel_h: 1
    kernel_w: 7
  }
}
layer {
  name: "block17_11/branch_1/Conv2d_0b_1x7/bn"
  type: "BNData"
  bottom: "block17_11/branch_1/Conv2d_0b_1x7"
  top: "block17_11/branch_1/Conv2d_0b_1x7/bn"
  param {
    lr_mult: 1
    decay_mult: 0
  }
  param {
    lr_mult: 1
    decay_mult: 0
  }
  param {
    lr_mult: 0
    decay_mult: 0
  }
  param {
    lr_mult: 0
    decay_mult: 0
  }
  bn_param {
    scale_filler {
      type: "constant"
      value: 1
    }
    shift_filler {
      type: "constant"
      value: 0
    }
    decay: 0.05
    moving_average: true
  }
}
layer {
  name: "block17_11/branch_1/Conv2d_0b_1x7/bn/relu"
  type: "ReLU"
  bottom: "block17_11/branch_1/Conv2d_0b_1x7/bn"
  top: "block17_11/branch_1/Conv2d_0b_1x7/bn"
}
layer {
  name: "block17_11/branch_1/Conv2d_0c_7x1"
  type: "ConvolutionData"
  bottom: "block17_11/branch_1/Conv2d_0b_1x7/bn"
  top: "block17_11/branch_1/Conv2d_0c_7x1"
  param {
    lr_mult: 1
    decay_mult: 1
  }
  convolution_param {
    num_output: 192
    bias_term: false
    stride: 1
    weight_filler {
      type: "msra"
    }
    pad_h: 3
    pad_w: 0
    kernel_h: 7
    kernel_w: 1
  }
}
layer {
…
layer {
  name: "reduction_b/branch_3/Conv2d_1b_3x3/bn"
  type: "BNData"
  bottom: "reduction_b/branch_3/Conv2d_1b_3x3"
  top: "reduction_b/branch_3/Conv2d_1b_3x3/bn"
  param {
    lr_mult: 1
    decay_mult: 0
  }
  param {
    lr_mult: 1
    decay_mult: 0
  }
  param {
    lr_mult: 0
    decay_mult: 0
  }
  param {
    lr_mult: 0
    decay_mult: 0
  }
  bn_param {
    scale_filler {
      type: "constant"
      value: 1
    }
    shift_filler {
      type: "constant"
      value: 0
    }
    decay: 0.05
    moving_average: true
  }
}
layer {
  name: "reduction_b/branch_3/Conv2d_1b_3x3/bn/relu"
  type: "ReLU"
  bottom: "reduction_b/branch_3/Conv2d_1b_3x3/bn"
  top: "reduction_b/branch_3/Conv2d_1b_3x3/bn"
}
layer {
  name: "reduction_b/concat"
  type: "Concat"
  bottom: "reduction_b/branch_0/MaxPool_1a_3x3"
  bottom: "reduction_b/branch_1/Conv2d_1a_3x3/bn"
  bottom: "reduction_b/branch_2/Conv2d_0b_1x1/bn"
  bottom: "reduction_b/branch_3/Conv2d_1b_3x3/bn"
  top: "reduction_b/concat"
  concat_param {
    axis: 1
  }
}
layer {
  name: "block8_1/branch_0/Conv2d_1x1"
  type: "ConvolutionData"
  bottom: "reduction_b/concat"
  top: "block8_1/branch_0/Conv2d_1x1"
  param {
    lr_mult: 1
    decay_mult: 1
  }
  convolution_param {
    num_output: 192
    bias_term: false
    pad: 0
    kernel_size: 1
    stride: 1
    weight_filler {
      type: "msra"
    }
  }
}
layer {
  name: "block8_1/branch_0/Conv2d_1x1/bn"
  type: "BNData"
  bottom: "block8_1/branch_0/Conv2d_1x1"
  top: "block8_1/branch_0/Conv2d_1x1/bn"
  param {
    lr_mult: 1
    decay_mult: 0
  }
  param {
    lr_mult: 1
    decay_mult: 0
  }
  param {
    lr_mult: 0
    decay_mult: 0
  }
  param {
    lr_mult: 0
    decay_mult: 0
  }
  bn_param {
    scale_filler {
      type: "constant"
      value: 1
    }
    shift_filler {
      type: "constant"
      value: 0
    }
    decay: 0.05
    moving_average: true
  }
}
layer {
  name: "block8_1/branch_0/Conv2d_1x1/bn/relu"
  type: "ReLU"
  bottom: "block8_1/branch_0/Conv2d_1x1/bn"
  top: "block8_1/branch_0/Conv2d_1x1/bn"
}
layer {
  name: "block8_1/branch_1/Conv2d_0a_1x1"
  type: "ConvolutionData"
  bottom: "reduction_b/concat"
  top: "block8_1/branch_1/Conv2d_0a_1x1"
  param {
    lr_mult: 1
    decay_mult: 1
  }
  convolution_param {
    num_output: 192
    bias_term: false
    pad: 0
    kernel_size: 1
    stride: 1
    weight_filler {
      type: "msra"
    }
  }
}
layer {
  name: "block8_1/branch_1/Conv2d_0a_1x1/bn"
  type: "BNData"
  bottom: "block8_1/branch_1/Conv2d_0a_1x1"
  top: "block8_1/branch_1/Conv2d_0a_1x1/bn"
  param {
    lr_mult: 1
    decay_mult: 0
  }
  param {
    lr_mult: 1
    decay_mult: 0
  }
  param {
    lr_mult: 0
    decay_mult: 0
  }
  param {
    lr_mult: 0
    decay_mult: 0
  }
  bn_param {
    scale_filler {
      type: "constant"
      value: 1
    }
    shift_filler {
      type: "constant"
      value: 0
    }
    decay: 0.05
    moving_average: true
  }
}
layer {
  name: "block8_1/branch_1/Conv2d_0a_1x1/bn/relu"
  type: "ReLU"
  bottom: "block8_1/branch_1/Conv2d_0a_1x1/bn"
  top: "block8_1/branch_1/Conv2d_0a_1x1/bn"
}
layer {
  name: "block8_1/branch_1/Conv2d_0b_1x3"
  type: "ConvolutionData"
  bottom: "block8_1/branch_1/Conv2d_0a_1x1/bn"
  top: "block8_1/branch_1/Conv2d_0b_1x3"
  param {
    lr_mult: 1
    decay_mult: 1
  }
  convolution_param {
    num_output: 224
    bias_term: false
    stride: 1
    weight_filler {
      type: "msra"
    }
    pad_h: 0
    pad_w: 1
    kernel_h: 1
    kernel_w: 3
  }
}
layer {
  name: "block8_1/branch_1/Conv2d_0b_1x3/bn"
  type: "BNData"
  bottom: "block8_1/branch_1/Conv2d_0b_1x3"
  top: "block8_1/branch_1/Conv2d_0b_1x3/bn"
  param {
    lr_mult: 1
    decay_mult: 0
  }
  param {
    lr_mult: 1
    decay_mult: 0
  }
  param {
    lr_mult: 0
    decay_mult: 0
  }
  param {
    lr_mult: 0
    decay_mult: 0
  }
  bn_param {
    scale_filler {
      type: "constant"
      value: 1
    }
    shift_filler {
      type: "constant"
      value: 0
    }
    decay: 0.05
    moving_average: true
  }
}
layer {
  name: "block8_1/branch_1/Conv2d_0b_1x3/bn/relu"
  type: "ReLU"
  bottom: "block8_1/branch_1/Conv2d_0b_1x3/bn"
  top: "block8_1/branch_1/Conv2d_0b_1x3/bn"
}
layer {
  name: "block8_1/branch_1/Conv2d_0c_3x1"
  type: "ConvolutionData"
  bottom: "block8_1/branch_1/Conv2d_0b_1x3/bn"
  top: "block8_1/branch_1/Conv2d_0c_3x1"
  param {
    lr_mult: 1
    decay_mult: 1
  }
  convolution_param {
    num_output: 256
    bias_term: false
    stride: 1
    weight_filler {
      type: "msra"
    }
    pad_h: 1
    pad_w: 0
    kernel_h: 3
    kernel_w: 1
  }
}
layer {
  name: "block8_1/branch_1/Conv2d_0c_3x1/bn"
  type: "BNData"
  bottom: "block8_1/branch_1/Conv2d_0c_3x1"
  top: "block8_1/branch_1/Conv2d_0c_3x1/bn"
  param {
    lr_mult: 1
    decay_mult: 0
  }
  param {
    lr_mult: 1
    decay_mult: 0
  }
  param {
    lr_mult: 0
    decay_mult: 0
  }
  param {
    lr_mult: 0
    decay_mult: 0
  }
  bn_param {
    scale_filler {
      type: "constant"
      value: 1
    }
    shift_filler {
      type: "constant"
      value: 0
    }
    decay: 0.05
    moving_average: true
  }
}
layer {
  name: "block8_1/branch_1/Conv2d_0c_3x1/bn/relu"
  type: "ReLU"
  bottom: "block8_1/branch_1/Conv2d_0c_3x1/bn"
  top: "block8_1/branch_1/Conv2d_0c_3x1/bn"
}
layer {
  name: "block8_1/concat"
  type: "Concat"
  bottom: "block8_1/branch_0/Conv2d_1x1/bn"
  bottom: "block8_1/branch_1/Conv2d_0c_3x1/bn"
  top: "block8_1/concat"
  concat_param {
    axis: 1
  }
}
layer {
  name: "block8_1/concat/Conv2d_1x1"
  type: "ConvolutionData"
  bottom: "block8_1/concat"
  top: "block8_1/concat/Conv2d_1x1"
  param {
    lr_mult: 1
    decay_mult: 1
  }
  param {
    lr_mult: 2
    decay_mult: 0
  }
  convolution_param {
    num_output: 2080
    bias_term: true
    pad: 0
    kernel_size: 1
    stride: 1
    weight_filler {
      type: "msra"
    }
    bias_filler {
      type: "constant"
      value: 0.2
    }
  }
}
layer {
  name: "block8_1/eltwise"
  type: "Eltwise"
  bottom: "reduction_b/concat"
  bottom: "block8_1/concat/Conv2d_1x1"
  top: "block8_1/eltwise"
  eltwise_param {
    operation: SUM
    coeff: 1
    coeff: 0.2
  }
}
layer {
  name: "block8_1/eltwise/relu"
  type: "ReLU"
  bottom: "block8_1/eltwise"
  top: "block8_1/eltwise"
}
layer {
  name: "block8_2/branch_0/Conv2d_1x1"
  type: "ConvolutionData"
  bottom: "block8_1/eltwise"
  top: "block8_2/branch_0/Conv2d_1x1"
  param {
    lr_mult: 1
    decay_mult: 1
  }
  convolution_param {
    num_output: 192
    bias_term: false
    pad: 0
    kernel_size: 1
    stride: 1
    weight_filler {
      type: "msra"
    }
  }
}
layer {
  name: "block8_2/branch_0/Conv2d_1x1/bn"
  type: "BNData"
  bottom: "block8_2/branch_0/Conv2d_1x1"
  top: "block8_2/branch_0/Conv2d_1x1/bn"
  param {
    lr_mult: 1
    decay_mult: 0
  }
  param {
    lr_mult: 1
    decay_mult: 0
  }
  param {
    lr_mult: 0
    decay_mult: 0
  }
  param {
    lr_mult: 0
    decay_mult: 0
  }
  bn_param {
    scale_filler {
      type: "constant"
      value: 1
    }
    shift_filler {
      type: "constant"
      value: 0
    }
    decay: 0.05
    moving_average: true
  }
}
layer {
  name: "block8_2/branch_0/Conv2d_1x1/bn/relu"
  type: "ReLU"
  bottom: "block8_2/branch_0/Conv2d_1x1/bn"
  top: "block8_2/branch_0/Conv2d_1x1/bn"
}
layer {
  name: "block8_2/branch_1/Conv2d_0a_1x1"
  type: "ConvolutionData"
  bottom: "block8_1/eltwise"
  top: "block8_2/branch_1/Conv2d_0a_1x1"
  param {
    lr_mult: 1
    decay_mult: 1
  }
  convolution_param {
    num_output: 192
    bias_term: false
    pad: 0
    kernel_size: 1
    stride: 1
    weight_filler {
      type: "msra"
    }
  }
}
layer {
  name: "block8_2/branch_1/Conv2d_0a_1x1/bn"
  type: "BNData"
  bottom: "block8_2/branch_1/Conv2d_0a_1x1"
  top: "block8_2/branch_1/Conv2d_0a_1x1/bn"
  param {
    lr_mult: 1
    decay_mult: 0
  }
  param {
    lr_mult: 1
    decay_mult: 0
  }
  param {
    lr_mult: 0
    decay_mult: 0
  }
  param {
    lr_mult: 0
    decay_mult: 0
  }
  bn_param {
    scale_filler {
      type: "constant"
      value: 1
    }
    shift_filler {
      type: "constant"
      value: 0
    }
    decay: 0.05
    moving_average: true
  }
}
layer {
  name: "block8_2/branch_1/Conv2d_0a_1x1/bn/relu"
  type: "ReLU"
  bottom: "block8_2/branch_1/Conv2d_0a_1x1/bn"
  top: "block8_2/branch_1/Conv2d_0a_1x1/bn"
}
layer {
  name: "block8_2/branch_1/Conv2d_0b_1x3"
  type: "ConvolutionData"
  bottom: "block8_2/branch_1/Conv2d_0a_1x1/bn"
  top: "block8_2/branch_1/Conv2d_0b_1x3"
  param {
    lr_mult: 1
    decay_mult: 1
  }
  convolution_param {
    num_output: 224
    bias_term: false
    stride: 1
    weight_filler {
      type: "msra"
    }
    pad_h: 0
    pad_w: 1
    kernel_h: 1
    kernel_w: 3
  }
}
layer {
  name: "block8_2/branch_1/Conv2d_0b_1x3/bn"
  type: "BNData"
  bottom: "block8_2/branch_1/Conv2d_0b_1x3"
  top: "block8_2/branch_1/Conv2d_0b_1x3/bn"
  param {
    lr_mult: 1
    decay_mult: 0
  }
  param {
    lr_mult: 1
    decay_mult: 0
  }
  param {
    lr_mult: 0
    decay_mult: 0
  }
  param {
    lr_mult: 0
    decay_mult: 0
  }
  bn_param {
    scale_filler {
      type: "constant"
      value: 1
    }
    shift_filler {
      type: "constant"
      value: 0
    }
    decay: 0.05
    moving_average: true
  }
}
layer {
  name: "block8_2/branch_1/Conv2d_0b_1x3/bn/relu"
  type: "ReLU"
  bottom: "block8_2/branch_1/Conv2d_0b_1x3/bn"
  top: "block8_2/branch_1/Conv2d_0b_1x3/bn"
}
layer {
  name: "block8_2/branch_1/Conv2d_0c_3x1"
  type: "ConvolutionData"
  bottom: "block8_2/branch_1/Conv2d_0b_1x3/bn"
  top: "block8_2/branch_1/Conv2d_0c_3x1"
  param {
    lr_mult: 1
    decay_mult: 1
  }
  convolution_param {
    num_output: 256
    bias_term: false
    stride: 1
    weight_filler {
      type: "msra"
    }
    pad_h: 1
    pad_w: 0
    kernel_h: 3
    kernel_w: 1
  }
}
layer {
  name: "block8_2/branch_1/Conv2d_0c_3x1/bn"
  type: "BNData"
  bottom: "block8_2/branch_1/Conv2d_0c_3x1"
  top: "block8_2/branch_1/Conv2d_0c_3x1/bn"
  param {
    lr_mult: 1
    decay_mult: 0
  }
  param {
    lr_mult: 1
    decay_mult: 0
  }
  param {
    lr_mult: 0
    decay_mult: 0
  }
  param {
    lr_mult: 0
    decay_mult: 0
  }
  bn_param {
    scale_filler {
      type: "constant"
      value: 1
    }
    shift_filler {
      type: "constant"
      value: 0
    }
    decay: 0.05
    moving_average: true
  }
}
layer {
  name: "block8_2/branch_1/Conv2d_0c_3x1/bn/relu"
  type: "ReLU"
  bottom: "block8_2/branch_1/Conv2d_0c_3x1/bn"
  top: "block8_2/branch_1/Conv2d_0c_3x1/bn"
}
layer {
  name: "block8_2/concat"
  type: "Concat"
  bottom: "block8_2/branch_0/Conv2d_1x1/bn"
  bottom: "block8_2/branch_1/Conv2d_0c_3x1/bn"
  top: "block8_2/concat"
  concat_param {
    axis: 1
  }
}
layer {
  name: "block8_2/concat/Conv2d_1x1"
  type: "ConvolutionData"
  bottom: "block8_2/concat"
  top: "block8_2/concat/Conv2d_1x1"
  param {
    lr_mult: 1
    decay_mult: 1
  }
  param {
    lr_mult: 2
    decay_mult: 0
  }
  convolution_param {
    num_output: 2080
    bias_term: true
    pad: 0
    kernel_size: 1
    stride: 1
    weight_filler {
      type: "msra"
    }
    bias_filler {
      type: "constant"
      value: 0.2
    }
  }
}
layer {
  name: "block8_2/eltwise"
  type: "Eltwise"
  bottom: "block8_1/eltwise"
  bottom: "block8_2/concat/Conv2d_1x1"
  top: "block8_2/eltwise"
  eltwise_param {
    operation: SUM
    coeff: 1
    coeff: 0.2
  }
}
layer {
  name: "block8_2/eltwise/relu"
  type: "ReLU"
  bottom: "block8_2/eltwise"
  top: "block8_2/eltwise"
}
layer {
  name: "block8_3/branch_0/Conv2d_1x1"
  type: "ConvolutionData"
  bottom: "block8_2/eltwise"
  top: "block8_3/branch_0/Conv2d_1x1"
  param {
    lr_mult: 1
    decay_mult: 1
  }
  convolution_param {
    num_output: 192
    bias_term: false
    pad: 0
    kernel_size: 1
    stride: 1
    weight_filler {
      type: "msra"
    }
  }
}
layer {
  name: "block8_3/branch_0/Conv2d_1x1/bn"
  type: "BNData"
  bottom: "block8_3/branch_0/Conv2d_1x1"
  top: "block8_3/branch_0/Conv2d_1x1/bn"
  param {
    lr_mult: 1
    decay_mult: 0
  }
  param {
    lr_mult: 1
    decay_mult: 0
  }
  param {
    lr_mult: 0
    decay_mult: 0
  }
  param {
    lr_mult: 0
    decay_mult: 0
  }
  bn_param {
    scale_filler {
      type: "constant"
      value: 1
    }
    shift_filler {
      type: "constant"
      value: 0
    }
    decay: 0.05
    moving_average: true
  }
}
layer {
  name: "block8_3/branch_0/Conv2d_1x1/bn/relu"
  type: "ReLU"
  bottom: "block8_3/branch_0/Conv2d_1x1/bn"
  top: "block8_3/branch_0/Conv2d_1x1/bn"
}
layer {
  name: "block8_3/branch_1/Conv2d_0a_1x1"
  type: "ConvolutionData"
  bottom: "block8_2/eltwise"
  top: "block8_3/branch_1/Conv2d_0a_1x1"
  param {
    lr_mult: 1
    decay_mult: 1
  }
  convolution_param {
    num_output: 192
    bias_term: false
    pad: 0
    kernel_size: 1
    stride: 1
    weight_filler {
      type: "msra"
    }
  }
}
layer {
  name: "block8_3/branch_1/Conv2d_0a_1x1/bn"
  type: "BNData"
  bottom: "block8_3/branch_1/Conv2d_0a_1x1"
  top: "block8_3/branch_1/Conv2d_0a_1x1/bn"
  param {
    lr_mult: 1
    decay_mult: 0
  }
  param {
    lr_mult: 1
    decay_mult: 0
  }
  param {
    lr_mult: 0
    decay_mult: 0
  }
  param {
    lr_mult: 0
    decay_mult: 0
  }
  bn_param {
    scale_filler {
      type: "constant"
      value: 1
    }
    shift_filler {
      type: "constant"
      value: 0
    }
    decay: 0.05
    moving_average: true
  }
}
layer {
  name: "block8_3/branch_1/Conv2d_0a_1x1/bn/relu"
  type: "ReLU"
  bottom: "block8_3/branch_1/Conv2d_0a_1x1/bn"
  top: "block8_3/branch_1/Conv2d_0a_1x1/bn"
}
layer {
  name: "block8_3/branch_1/Conv2d_0b_1x3"
  type: "ConvolutionData"
  bottom: "block8_3/branch_1/Conv2d_0a_1x1/bn"
  top: "block8_3/branch_1/Conv2d_0b_1x3"
  param {
    lr_mult: 1
    decay_mult: 1
  }
  convolution_param {
    num_output: 224
    bias_term: false
    stride: 1
    weight_filler {
      type: "msra"
    }
    pad_h: 0
    pad_w: 1
    kernel_h: 1
    kernel_w: 3
  }
}
layer {
  name: "block8_3/branch_1/Conv2d_0b_1x3/bn"
  type: "BNData"
  bottom: "block8_3/branch_1/Conv2d_0b_1x3"
  top: "block8_3/branch_1/Conv2d_0b_1x3/bn"
  param {
    lr_mult: 1
    decay_mult: 0
  }
  param {
    lr_mult: 1
    decay_mult: 0
  }
  param {
    lr_mult: 0
    decay_mult: 0
  }
  param {
    lr_mult: 0
    decay_mult: 0
  }
  bn_param {
    scale_filler {
      type: "constant"
      value: 1
    }
    shift_filler {
      type: "constant"
      value: 0
    }
    decay: 0.05
    moving_average: true
  }
}
layer {
  name: "block8_3/branch_1/Conv2d_0b_1x3/bn/relu"
  type: "ReLU"
  bottom: "block8_3/branch_1/Conv2d_0b_1x3/bn"
  top: "block8_3/branch_1/Conv2d_0b_1x3/bn"
}
layer {
  name: "block8_3/branch_1/Conv2d_0c_3x1"
  type: "ConvolutionData"
  bottom: "block8_3/branch_1/Conv2d_0b_1x3/bn"
  top: "block8_3/branch_1/Conv2d_0c_3x1"
  param {
    lr_mult: 1
    decay_mult: 1
  }
  convolution_param {
    num_output: 256
    bias_term: false
    stride: 1
    weight_filler {
      type: "msra"
    }
    pad_h: 1
    pad_w: 0
    kernel_h: 3
    kernel_w: 1
  }
}
layer {
  name: "block8_3/branch_1/Conv2d_0c_3x1/bn"
  type: "BNData"
  bottom: "block8_3/branch_1/Conv2d_0c_3x1"
  top: "block8_3/branch_1/Conv2d_0c_3x1/bn"
  param {
    lr_mult: 1
    decay_mult: 0
  }
  param {
    lr_mult: 1
    decay_mult: 0
  }
  param {
    lr_mult: 0
    decay_mult: 0
  }
  param {
    lr_mult: 0
    decay_mult: 0
  }
  bn_param {
    scale_filler {
      type: "constant"
      value: 1
    }
    shift_filler {
      type: "constant"
      value: 0
    }
    decay: 0.05
    moving_average: true
  }
}
layer {
  name: "block8_3/branch_1/Conv2d_0c_3x1/bn/relu"
  type: "ReLU"
  bottom: "block8_3/branch_1/Conv2d_0c_3x1/bn"
  top: "block8_3/branch_1/Conv2d_0c_3x1/bn"
}
layer {
  name: "block8_3/concat"
  type: "Concat"
  bottom: "block8_3/branch_0/Conv2d_1x1/bn"
  bottom: "block8_3/branch_1/Conv2d_0c_3x1/bn"
  top: "block8_3/concat"
  concat_param {
    axis: 1
  }
}
layer {
  name: "block8_3/concat/Conv2d_1x1"
  type: "ConvolutionData"
  bottom: "block8_3/concat"
  top: "block8_3/concat/Conv2d_1x1"
  param {
    lr_mult: 1
    decay_mult: 1
  }
  param {
    lr_mult: 2
    decay_mult: 0
  }
  convolution_param {
    num_output: 2080
    bias_term: true
    pad: 0
    kernel_size: 1
    stride: 1
    weight_filler {
      type: "msra"
    }
    bias_filler {
      type: "constant"
      value: 0.2
    }
  }
}
layer {
  name: "block8_3/eltwise"
  type: "Eltwise"
  bottom: "block8_2/eltwise"
  bottom: "block8_3/concat/Conv2d_1x1"
  top: "block8_3/eltwise"
  eltwise_param {
    operation: SUM
    coeff: 1
    coeff: 0.2
  }
}
layer {
  name: "block8_3/eltwise/relu"
  type: "ReLU"
  bottom: "block8_3/eltwise"
  top: "block8_3/eltwise"
}
layer {
  name: "block8_4/branch_0/Conv2d_1x1"
  type: "ConvolutionData"
  bottom: "block8_3/eltwise"
  top: "block8_4/branch_0/Conv2d_1x1"
  param {
    lr_mult: 1
    decay_mult: 1
  }
  convolution_param {
    num_output: 192
    bias_term: false
    pad: 0
    kernel_size: 1
    stride: 1
    weight_filler {
      type: "msra"
    }
  }
}
layer {
  name: "block8_4/branch_0/Conv2d_1x1/bn"
  type: "BNData"
  bottom: "block8_4/branch_0/Conv2d_1x1"
  top: "block8_4/branch_0/Conv2d_1x1/bn"
  param {
    lr_mult: 1
    decay_mult: 0
  }
  param {
    lr_mult: 1
    decay_mult: 0
  }
  param {
    lr_mult: 0
    decay_mult: 0
  }
  param {
    lr_mult: 0
    decay_mult: 0
  }
  bn_param {
    scale_filler {
      type: "constant"
      value: 1
    }
    shift_filler {
      type: "constant"
      value: 0
    }
    decay: 0.05
    moving_average: true
  }
}
layer {
  name: "block8_4/branch_0/Conv2d_1x1/bn/relu"
  type: "ReLU"
  bottom: "block8_4/branch_0/Conv2d_1x1/bn"
  top: "block8_4/branch_0/Conv2d_1x1/bn"
}
layer {
  name: "block8_4/branch_1/Conv2d_0a_1x1"
  type: "ConvolutionData"
  bottom: "block8_3/eltwise"
  top: "block8_4/branch_1/Conv2d_0a_1x1"
  param {
    lr_mult: 1
    decay_mult: 1
  }
  convolution_param {
    num_output: 192
    bias_term: false
    pad: 0
    kernel_size: 1
    stride: 1
    weight_filler {
      type: "msra"
    }
  }
}
layer {
  name: "block8_4/branch_1/Conv2d_0a_1x1/bn"
  type: "BNData"
  bottom: "block8_4/branch_1/Conv2d_0a_1x1"
  top: "block8_4/branch_1/Conv2d_0a_1x1/bn"
  param {
    lr_mult: 1
    decay_mult: 0
  }
  param {
    lr_mult: 1
    decay_mult: 0
  }
  param {
    lr_mult: 0
    decay_mult: 0
  }
  param {
    lr_mult: 0
    decay_mult: 0
  }
  bn_param {
    scale_filler {
      type: "constant"
      value: 1
    }
    shift_filler {
      type: "constant"
      value: 0
    }
    decay: 0.05
    moving_average: true
  }
}
layer {
  name: "block8_4/branch_1/Conv2d_0a_1x1/bn/relu"
  type: "ReLU"
  bottom: "block8_4/branch_1/Conv2d_0a_1x1/bn"
  top: "block8_4/branch_1/Conv2d_0a_1x1/bn"
}
layer {
  name: "block8_4/branch_1/Conv2d_0b_1x3"
  type: "ConvolutionData"
  bottom: "block8_4/branch_1/Conv2d_0a_1x1/bn"
  top: "block8_4/branch_1/Conv2d_0b_1x3"
  param {
    lr_mult: 1
    decay_mult: 1
  }
  convolution_param {
    num_output: 224
    bias_term: false
    stride: 1
    weight_filler {
      type: "msra"
    }
    pad_h: 0
    pad_w: 1
    kernel_h: 1
    kernel_w: 3
  }
}
layer {
  name: "block8_4/branch_1/Conv2d_0b_1x3/bn"
  type: "BNData"
  bottom: "block8_4/branch_1/Conv2d_0b_1x3"
  top: "block8_4/branch_1/Conv2d_0b_1x3/bn"
  param {
    lr_mult: 1
    decay_mult: 0
  }
  param {
    lr_mult: 1
    decay_mult: 0
  }
  param {
    lr_mult: 0
    decay_mult: 0
  }
  param {
    lr_mult: 0
    decay_mult: 0
  }
  bn_param {
    scale_filler {
      type: "constant"
      value: 1
    }
    shift_filler {
      type: "constant"
      value: 0
    }
    decay: 0.05
    moving_average: true
  }
}
layer {
  name: "block8_4/branch_1/Conv2d_0b_1x3/bn/relu"
  type: "ReLU"
  bottom: "block8_4/branch_1/Conv2d_0b_1x3/bn"
  top: "block8_4/branch_1/Conv2d_0b_1x3/bn"
}
layer {
  name: "block8_4/branch_1/Conv2d_0c_3x1"
  type: "ConvolutionData"
  bottom: "block8_4/branch_1/Conv2d_0b_1x3/bn"
  top: "block8_4/branch_1/Conv2d_0c_3x1"
  param {
    lr_mult: 1
    decay_mult: 1
  }
  convolution_param {
    num_output: 256
    bias_term: false
    stride: 1
    weight_filler {
      type: "msra"
    }
    pad_h: 1
    pad_w: 0
    kernel_h: 3
    kernel_w: 1
  }
}
layer {
  name: "block8_4/branch_1/Conv2d_0c_3x1/bn"
  type: "BNData"
  bottom: "block8_4/branch_1/Conv2d_0c_3x1"
  top: "block8_4/branch_1/Conv2d_0c_3x1/bn"
  param {
    lr_mult: 1
    decay_mult: 0
  }
  param {
    lr_mult: 1
    decay_mult: 0
  }
  param {
    lr_mult: 0
    decay_mult: 0
  }
  param {
    lr_mult: 0
    decay_mult: 0
  }
  bn_param {
    scale_filler {
      type: "constant"
      value: 1
    }
    shift_filler {
      type: "constant"
      value: 0
    }
    decay: 0.05
    moving_average: true
  }
}
layer {
  name: "block8_4/branch_1/Conv2d_0c_3x1/bn/relu"
  type: "ReLU"
  bottom: "block8_4/branch_1/Conv2d_0c_3x1/bn"
  top: "block8_4/branch_1/Conv2d_0c_3x1/bn"
}
layer {
  name: "block8_4/concat"
  type: "Concat"
  bottom: "block8_4/branch_0/Conv2d_1x1/bn"
  bottom: "block8_4/branch_1/Conv2d_0c_3x1/bn"
  top: "block8_4/concat"
  concat_param {
    axis: 1
  }
}
layer {
  name: "block8_4/concat/Conv2d_1x1"
  type: "ConvolutionData"
  bottom: "block8_4/concat"
  top: "block8_4/concat/Conv2d_1x1"
  param {
    lr_mult: 1
    decay_mult: 1
  }
  param {
    lr_mult: 2
    decay_mult: 0
  }
  convolution_param {
    num_output: 2080
    bias_term: true
    pad: 0
    kernel_size: 1
    stride: 1
    weight_filler {
      type: "msra"
    }
    bias_filler {
      type: "constant"
      value: 0.2
    }
  }
}
layer {
  name: "block8_4/eltwise"
  type: "Eltwise"
  bottom: "block8_3/eltwise"
  bottom: "block8_4/concat/Conv2d_1x1"
  top: "block8_4/eltwise"
  eltwise_param {
    operation: SUM
    coeff: 1
    coeff: 0.2
  }
}
layer {
  name: "block8_4/eltwise/relu"
  type: "ReLU"
  bottom: "block8_4/eltwise"
  top: "block8_4/eltwise"
}
layer {
  name: "block8_5/branch_0/Conv2d_1x1"
  type: "ConvolutionData"
  bottom: "block8_4/eltwise"
  top: "block8_5/branch_0/Conv2d_1x1"
  param {
    lr_mult: 1
    decay_mult: 1
  }
  convolution_param {
    num_output: 192
    bias_term: false
    pad: 0
    kernel_size: 1
    stride: 1
    weight_filler {
      type: "msra"
    }
  }
}
layer {
  name: "block8_5/branch_0/Conv2d_1x1/bn"
  type: "BNData"
  bottom: "block8_5/branch_0/Conv2d_1x1"
  top: "block8_5/branch_0/Conv2d_1x1/bn"
  param {
    lr_mult: 1
    decay_mult: 0
  }
  param {
    lr_mult: 1
    decay_mult: 0
  }
  param {
    lr_mult: 0
    decay_mult: 0
  }
  param {
    lr_mult: 0
    decay_mult: 0
  }
  bn_param {
    scale_filler {
      type: "constant"
      value: 1
    }
    shift_filler {
      type: "constant"
      value: 0
    }
    decay: 0.05
    moving_average: true
  }
}
layer {
  name: "block8_5/branch_0/Conv2d_1x1/bn/relu"
  type: "ReLU"
  bottom: "block8_5/branch_0/Conv2d_1x1/bn"
  top: "block8_5/branch_0/Conv2d_1x1/bn"
}
layer {
  name: "block8_5/branch_1/Conv2d_0a_1x1"
  type: "ConvolutionData"
  bottom: "block8_4/eltwise"
  top: "block8_5/branch_1/Conv2d_0a_1x1"
  param {
    lr_mult: 1
    decay_mult: 1
  }
  convolution_param {
    num_output: 192
    bias_term: false
    pad: 0
    kernel_size: 1
    stride: 1
    weight_filler {
      type: "msra"
    }
  }
}
layer {
  name: "block8_5/branch_1/Conv2d_0a_1x1/bn"
  type: "BNData"
  bottom: "block8_5/branch_1/Conv2d_0a_1x1"
  top: "block8_5/branch_1/Conv2d_0a_1x1/bn"
  param {
    lr_mult: 1
    decay_mult: 0
  }
  param {
    lr_mult: 1
    decay_mult: 0
  }
  param {
    lr_mult: 0
    decay_mult: 0
  }
  param {
    lr_mult: 0
    decay_mult: 0
  }
  bn_param {
    scale_filler {
      type: "constant"
      value: 1
    }
    shift_filler {
      type: "constant"
      value: 0
    }
    decay: 0.05
    moving_average: true
  }
}
layer {
  name: "block8_5/branch_1/Conv2d_0a_1x1/bn/relu"
  type: "ReLU"
  bottom: "block8_5/branch_1/Conv2d_0a_1x1/bn"
  top: "block8_5/branch_1/Conv2d_0a_1x1/bn"
}
layer {
  name: "block8_5/branch_1/Conv2d_0b_1x3"
  type: "ConvolutionData"
  bottom: "block8_5/branch_1/Conv2d_0a_1x1/bn"
  top: "block8_5/branch_1/Conv2d_0b_1x3"
  param {
    lr_mult: 1
    decay_mult: 1
  }
  convolution_param {
    num_output: 224
    bias_term: false
    stride: 1
    weight_filler {
      type: "msra"
    }
    pad_h: 0
    pad_w: 1
    kernel_h: 1
    kernel_w: 3
  }
}
layer {
  name: "block8_5/branch_1/Conv2d_0b_1x3/bn"
  type: "BNData"
  bottom: "block8_5/branch_1/Conv2d_0b_1x3"
  top: "block8_5/branch_1/Conv2d_0b_1x3/bn"
  param {
    lr_mult: 1
    decay_mult: 0
  }
  param {
    lr_mult: 1
    decay_mult: 0
  }
  param {
    lr_mult: 0
    decay_mult: 0
  }
  param {
    lr_mult: 0
    decay_mult: 0
  }
  bn_param {
    scale_filler {
      type: "constant"
      value: 1
    }
    shift_filler {
      type: "constant"
      value: 0
    }
    decay: 0.05
    moving_average: true
  }
}
layer {
  name: "block8_5/branch_1/Conv2d_0b_1x3/bn/relu"
  type: "ReLU"
  bottom: "block8_5/branch_1/Conv2d_0b_1x3/bn"
  top: "block8_5/branch_1/Conv2d_0b_1x3/bn"
}
layer {
  name: "block8_5/branch_1/Conv2d_0c_3x1"
  type: "ConvolutionData"
  bottom: "block8_5/branch_1/Conv2d_0b_1x3/bn"
  top: "block8_5/branch_1/Conv2d_0c_3x1"
  param {
    lr_mult: 1
    decay_mult: 1
  }
  convolution_param {
    num_output: 256
    bias_term: false
    stride: 1
    weight_filler {
      type: "msra"
    }
    pad_h: 1
    pad_w: 0
    kernel_h: 3
    kernel_w: 1
  }
}
layer {
  name: "block8_5/branch_1/Conv2d_0c_3x1/bn"
  type: "BNData"
  bottom: "block8_5/branch_1/Conv2d_0c_3x1"
  top: "block8_5/branch_1/Conv2d_0c_3x1/bn"
  param {
    lr_mult: 1
    decay_mult: 0
  }
  param {
    lr_mult: 1
    decay_mult: 0
  }
  param {
    lr_mult: 0
    decay_mult: 0
  }
  param {
    lr_mult: 0
    decay_mult: 0
  }
  bn_param {
    scale_filler {
      type: "constant"
      value: 1
    }
    shift_filler {
      type: "constant"
      value: 0
    }
    decay: 0.05
    moving_average: true
  }
}
layer {
  name: "block8_5/branch_1/Conv2d_0c_3x1/bn/relu"
  type: "ReLU"
  bottom: "block8_5/branch_1/Conv2d_0c_3x1/bn"
  top: "block8_5/branch_1/Conv2d_0c_3x1/bn"
}
layer {
  name: "block8_5/concat"
  type: "Concat"
  bottom: "block8_5/branch_0/Conv2d_1x1/bn"
  bottom: "block8_5/branch_1/Conv2d_0c_3x1/bn"
  top: "block8_5/concat"
  concat_param {
    axis: 1
  }
}
layer {
  name: "block8_5/concat/Conv2d_1x1"
  type: "ConvolutionData"
  bottom: "block8_5/concat"
  top: "block8_5/concat/Conv2d_1x1"
  param {
    lr_mult: 1
    decay_mult: 1
  }
  param {
    lr_mult: 2
    decay_mult: 0
  }
  convolution_param {
    num_output: 2080
    bias_term: true
    pad: 0
    kernel_size: 1
    stride: 1
    weight_filler {
      type: "msra"
    }
    bias_filler {
      type: "constant"
      value: 0.2
    }
  }
}
layer {
  name: "block8_5/eltwise"
  type: "Eltwise"
  bottom: "block8_4/eltwise"
  bottom: "block8_5/concat/Conv2d_1x1"
  top: "block8_5/eltwise"
  eltwise_param {
    operation: SUM
    coeff: 1
    coeff: 0.2
  }
}
layer {
  name: "block8_5/eltwise/relu"
  type: "ReLU"
  bottom: "block8_5/eltwise"
  top: "block8_5/eltwise"
}
layer {
  name: "block8_6/branch_0/Conv2d_1x1"
  type: "ConvolutionData"
  bottom: "block8_5/eltwise"
  top: "block8_6/branch_0/Conv2d_1x1"
  param {
    lr_mult: 1
    decay_mult: 1
  }
  convolution_param {
    num_output: 192
    bias_term: false
    pad: 0
    kernel_size: 1
    stride: 1
    weight_filler {
      type: "msra"
    }
  }
}
layer {
  name: "block8_6/branch_0/Conv2d_1x1/bn"
  type: "BNData"
  bottom: "block8_6/branch_0/Conv2d_1x1"
  top: "block8_6/branch_0/Conv2d_1x1/bn"
  param {
    lr_mult: 1
    decay_mult: 0
  }
  param {
    lr_mult: 1
    decay_mult: 0
  }
  param {
    lr_mult: 0
    decay_mult: 0
  }
  param {
    lr_mult: 0
    decay_mult: 0
  }
  bn_param {
    scale_filler {
      type: "constant"
      value: 1
    }
    shift_filler {
      type: "constant"
      value: 0
    }
    decay: 0.05
    moving_average: true
  }
}
layer {
  name: "block8_6/branch_0/Conv2d_1x1/bn/relu"
  type: "ReLU"
  bottom: "block8_6/branch_0/Conv2d_1x1/bn"
  top: "block8_6/branch_0/Conv2d_1x1/bn"
}
layer {
  name: "block8_6/branch_1/Conv2d_0a_1x1"
  type: "ConvolutionData"
  bottom: "block8_5/eltwise"
  top: "block8_6/branch_1/Conv2d_0a_1x1"
  param {
    lr_mult: 1
    decay_mult: 1
  }
  convolution_param {
    num_output: 192
    bias_term: false
    pad: 0
    kernel_size: 1
    stride: 1
    weight_filler {
      type: "msra"
    }
  }
}
layer {
  name: "block8_6/branch_1/Conv2d_0a_1x1/bn"
  type: "BNData"
  bottom: "block8_6/branch_1/Conv2d_0a_1x1"
  top: "block8_6/branch_1/Conv2d_0a_1x1/bn"
  param {
    lr_mult: 1
    decay_mult: 0
  }
  param {
    lr_mult: 1
    decay_mult: 0
  }
  param {
    lr_mult: 0
    decay_mult: 0
  }
  param {
    lr_mult: 0
    decay_mult: 0
  }
  bn_param {
    scale_filler {
      type: "constant"
      value: 1
    }
    shift_filler {
      type: "constant"
      value: 0
    }
    decay: 0.05
    moving_average: true
  }
}
layer {
  name: "block8_6/branch_1/Conv2d_0a_1x1/bn/relu"
  type: "ReLU"
  bottom: "block8_6/branch_1/Conv2d_0a_1x1/bn"
  top: "block8_6/branch_1/Conv2d_0a_1x1/bn"
}
layer {
  name: "block8_6/branch_1/Conv2d_0b_1x3"
  type: "ConvolutionData"
  bottom: "block8_6/branch_1/Conv2d_0a_1x1/bn"
  top: "block8_6/branch_1/Conv2d_0b_1x3"
  param {
    lr_mult: 1
    decay_mult: 1
  }
  convolution_param {
    num_output: 224
    bias_term: false
    stride: 1
    weight_filler {
      type: "msra"
    }
    pad_h: 0
    pad_w: 1
    kernel_h: 1
    kernel_w: 3
  }
}
layer {
  name: "block8_6/branch_1/Conv2d_0b_1x3/bn"
  type: "BNData"
  bottom: "block8_6/branch_1/Conv2d_0b_1x3"
  top: "block8_6/branch_1/Conv2d_0b_1x3/bn"
  param {
    lr_mult: 1
    decay_mult: 0
  }
  param {
    lr_mult: 1
    decay_mult: 0
  }
  param {
    lr_mult: 0
    decay_mult: 0
  }
  param {
    lr_mult: 0
    decay_mult: 0
  }
  bn_param {
    scale_filler {
      type: "constant"
      value: 1
    }
    shift_filler {
      type: "constant"
      value: 0
    }
    decay: 0.05
    moving_average: true
  }
}
layer {
  name: "block8_6/branch_1/Conv2d_0b_1x3/bn/relu"
  type: "ReLU"
  bottom: "block8_6/branch_1/Conv2d_0b_1x3/bn"
  top: "block8_6/branch_1/Conv2d_0b_1x3/bn"
}
layer {
  name: "block8_6/branch_1/Conv2d_0c_3x1"
  type: "ConvolutionData"
  bottom: "block8_6/branch_1/Conv2d_0b_1x3/bn"
  top: "block8_6/branch_1/Conv2d_0c_3x1"
  param {
    lr_mult: 1
    decay_mult: 1
  }
  convolution_param {
    num_output: 256
    bias_term: false
    stride: 1
    weight_filler {
      type: "msra"
    }
    pad_h: 1
    pad_w: 0
    kernel_h: 3
    kernel_w: 1
  }
}
layer {
  name: "block8_6/branch_1/Conv2d_0c_3x1/bn"
  type: "BNData"
  bottom: "block8_6/branch_1/Conv2d_0c_3x1"
  top: "block8_6/branch_1/Conv2d_0c_3x1/bn"
  param {
    lr_mult: 1
    decay_mult: 0
  }
  param {
    lr_mult: 1
    decay_mult: 0
  }
  param {
    lr_mult: 0
    decay_mult: 0
  }
  param {
    lr_mult: 0
    decay_mult: 0
  }
  bn_param {
    scale_filler {
      type: "constant"
      value: 1
    }
    shift_filler {
      type: "constant"
      value: 0
    }
    decay: 0.05
    moving_average: true
  }
}
layer {
  name: "block8_6/branch_1/Conv2d_0c_3x1/bn/relu"
  type: "ReLU"
  bottom: "block8_6/branch_1/Conv2d_0c_3x1/bn"
  top: "block8_6/branch_1/Conv2d_0c_3x1/bn"
}
layer {
  name: "block8_6/concat"
  type: "Concat"
  bottom: "block8_6/branch_0/Conv2d_1x1/bn"
  bottom: "block8_6/branch_1/Conv2d_0c_3x1/bn"
  top: "block8_6/concat"
  concat_param {
    axis: 1
  }
}
layer {
  name: "block8_6/concat/Conv2d_1x1"
  type: "ConvolutionData"
  bottom: "block8_6/concat"
  top: "block8_6/concat/Conv2d_1x1"
  param {
    lr_mult: 1
    decay_mult: 1
  }
  param {
    lr_mult: 2
    decay_mult: 0
  }
  convolution_param {
    num_output: 2080
    bias_term: true
    pad: 0
    kernel_size: 1
    stride: 1
    weight_filler {
      type: "msra"
    }
    bias_filler {
      type: "constant"
      value: 0.2
    }
  }
}
layer {
  name: "block8_6/eltwise"
  type: "Eltwise"
  bottom: "block8_5/eltwise"
  bottom: "block8_6/concat/Conv2d_1x1"
  top: "block8_6/eltwise"
  eltwise_param {
    operation: SUM
    coeff: 1
    coeff: 0.2
  }
}
layer {
  name: "block8_6/eltwise/relu"
  type: "ReLU"
  bottom: "block8_6/eltwise"
  top: "block8_6/eltwise"
}
layer {
  name: "block8_7/branch_0/Conv2d_1x1"
  type: "ConvolutionData"
  bottom: "block8_6/eltwise"
  top: "block8_7/branch_0/Conv2d_1x1"
  param {
    lr_mult: 1
    decay_mult: 1
  }
  convolution_param {
    num_output: 192
    bias_term: false
    pad: 0
    kernel_size: 1
    stride: 1
    weight_filler {
      type: "msra"
    }
  }
}
layer {
  name: "block8_7/branch_0/Conv2d_1x1/bn"
  type: "BNData"
  bottom: "block8_7/branch_0/Conv2d_1x1"
  top: "block8_7/branch_0/Conv2d_1x1/bn"
  param {
    lr_mult: 1
    decay_mult: 0
  }
  param {
    lr_mult: 1
    decay_mult: 0
  }
  param {
    lr_mult: 0
    decay_mult: 0
  }
  param {
    lr_mult: 0
    decay_mult: 0
  }
  bn_param {
    scale_filler {
      type: "constant"
      value: 1
    }
    shift_filler {
      type: "constant"
      value: 0
    }
    decay: 0.05
    moving_average: true
  }
}
layer {
  name: "block8_7/branch_0/Conv2d_1x1/bn/relu"
  type: "ReLU"
  bottom: "block8_7/branch_0/Conv2d_1x1/bn"
  top: "block8_7/branch_0/Conv2d_1x1/bn"
}
layer {
  name: "block8_7/branch_1/Conv2d_0a_1x1"
  type: "ConvolutionData"
  bottom: "block8_6/eltwise"
  top: "block8_7/branch_1/Conv2d_0a_1x1"
  param {
    lr_mult: 1
    decay_mult: 1
  }
  convolution_param {
    num_output: 192
    bias_term: false
    pad: 0
    kernel_size: 1
    stride: 1
    weight_filler {
      type: "msra"
    }
  }
}
layer {
  name: "block8_7/branch_1/Conv2d_0a_1x1/bn"
  type: "BNData"
  bottom: "block8_7/branch_1/Conv2d_0a_1x1"
  top: "block8_7/branch_1/Conv2d_0a_1x1/bn"
  param {
    lr_mult: 1
    decay_mult: 0
  }
  param {
    lr_mult: 1
    decay_mult: 0
  }
  param {
    lr_mult: 0
    decay_mult: 0
  }
  param {
    lr_mult: 0
    decay_mult: 0
  }
  bn_param {
    scale_filler {
      type: "constant"
      value: 1
    }
    shift_filler {
      type: "constant"
      value: 0
    }
    decay: 0.05
    moving_average: true
  }
}
layer {
  name: "block8_7/branch_1/Conv2d_0a_1x1/bn/relu"
  type: "ReLU"
  bottom: "block8_7/branch_1/Conv2d_0a_1x1/bn"
  top: "block8_7/branch_1/Conv2d_0a_1x1/bn"
}
layer {
  name: "block8_7/branch_1/Conv2d_0b_1x3"
  type: "ConvolutionData"
  bottom: "block8_7/branch_1/Conv2d_0a_1x1/bn"
  top: "block8_7/branch_1/Conv2d_0b_1x3"
  param {
    lr_mult: 1
    decay_mult: 1
  }
  convolution_param {
    num_output: 224
    bias_term: false
    stride: 1
    weight_filler {
      type: "msra"
    }
    pad_h: 0
    pad_w: 1
    kernel_h: 1
    kernel_w: 3
  }
}
layer {
  name: "block8_7/branch_1/Conv2d_0b_1x3/bn"
  type: "BNData"
  bottom: "block8_7/branch_1/Conv2d_0b_1x3"
  top: "block8_7/branch_1/Conv2d_0b_1x3/bn"
  param {
    lr_mult: 1
    decay_mult: 0
  }
  param {
    lr_mult: 1
    decay_mult: 0
  }
  param {
    lr_mult: 0
    decay_mult: 0
  }
  param {
    lr_mult: 0
    decay_mult: 0
  }
  bn_param {
    scale_filler {
      type: "constant"
      value: 1
    }
    shift_filler {
      type: "constant"
      value: 0
    }
    decay: 0.05
    moving_average: true
  }
}
layer {
  name: "block8_7/branch_1/Conv2d_0b_1x3/bn/relu"
  type: "ReLU"
  bottom: "block8_7/branch_1/Conv2d_0b_1x3/bn"
  top: "block8_7/branch_1/Conv2d_0b_1x3/bn"
}
layer {
  name: "block8_7/branch_1/Conv2d_0c_3x1"
  type: "ConvolutionData"
  bottom: "block8_7/branch_1/Conv2d_0b_1x3/bn"
  top: "block8_7/branch_1/Conv2d_0c_3x1"
  param {
    lr_mult: 1
    decay_mult: 1
  }
  convolution_param {
    num_output: 256
    bias_term: false
    stride: 1
    weight_filler {
      type: "msra"
    }
    pad_h: 1
    pad_w: 0
    kernel_h: 3
    kernel_w: 1
  }
}
layer {
  name: "block8_7/branch_1/Conv2d_0c_3x1/bn"
  type: "BNData"
  bottom: "block8_7/branch_1/Conv2d_0c_3x1"
  top: "block8_7/branch_1/Conv2d_0c_3x1/bn"
  param {
    lr_mult: 1
    decay_mult: 0
  }
  param {
    lr_mult: 1
    decay_mult: 0
  }
  param {
    lr_mult: 0
    decay_mult: 0
  }
  param {
    lr_mult: 0
    decay_mult: 0
  }
  bn_param {
    scale_filler {
      type: "constant"
      value: 1
    }
    shift_filler {
      type: "constant"
      value: 0
    }
    decay: 0.05
    moving_average: true
  }
}
layer {
  name: "block8_7/branch_1/Conv2d_0c_3x1/bn/relu"
  type: "ReLU"
  bottom: "block8_7/branch_1/Conv2d_0c_3x1/bn"
  top: "block8_7/branch_1/Conv2d_0c_3x1/bn"
}
layer {
  name: "block8_7/concat"
  type: "Concat"
  bottom: "block8_7/branch_0/Conv2d_1x1/bn"
  bottom: "block8_7/branch_1/Conv2d_0c_3x1/bn"
  top: "block8_7/concat"
  concat_param {
    axis: 1
  }
}
layer {
  name: "block8_7/concat/Conv2d_1x1"
  type: "ConvolutionData"
  bottom: "block8_7/concat"
  top: "block8_7/concat/Conv2d_1x1"
  param {
    lr_mult: 1
    decay_mult: 1
  }
  param {
    lr_mult: 2
    decay_mult: 0
  }
  convolution_param {
    num_output: 2080
    bias_term: true
    pad: 0
    kernel_size: 1
    stride: 1
    weight_filler {
      type: "msra"
    }
    bias_filler {
      type: "constant"
      value: 0.2
    }
  }
}
layer {
  name: "block8_7/eltwise"
  type: "Eltwise"
  bottom: "block8_6/eltwise"
  bottom: "block8_7/concat/Conv2d_1x1"
  top: "block8_7/eltwise"
  eltwise_param {
    operation: SUM
    coeff: 1
    coeff: 0.2
  }
}
layer {
  name: "block8_7/eltwise/relu"
  type: "ReLU"
  bottom: "block8_7/eltwise"
  top: "block8_7/eltwise"
}
layer {
  name: "block8_8/branch_0/Conv2d_1x1"
  type: "ConvolutionData"
  bottom: "block8_7/eltwise"
  top: "block8_8/branch_0/Conv2d_1x1"
  param {
    lr_mult: 1
    decay_mult: 1
  }
  convolution_param {
    num_output: 192
    bias_term: false
    pad: 0
    kernel_size: 1
    stride: 1
    weight_filler {
      type: "msra"
    }
  }
}
layer {
  name: "block8_8/branch_0/Conv2d_1x1/bn"
  type: "BNData"
  bottom: "block8_8/branch_0/Conv2d_1x1"
  top: "block8_8/branch_0/Conv2d_1x1/bn"
  param {
    lr_mult: 1
    decay_mult: 0
  }
  param {
    lr_mult: 1
    decay_mult: 0
  }
  param {
    lr_mult: 0
    decay_mult: 0
  }
  param {
    lr_mult: 0
    decay_mult: 0
  }
  bn_param {
    scale_filler {
      type: "constant"
      value: 1
    }
    shift_filler {
      type: "constant"
      value: 0
    }
    decay: 0.05
    moving_average: true
  }
}
layer {
  name: "block8_8/branch_0/Conv2d_1x1/bn/relu"
  type: "ReLU"
  bottom: "block8_8/branch_0/Conv2d_1x1/bn"
  top: "block8_8/branch_0/Conv2d_1x1/bn"
}
layer {
  name: "block8_8/branch_1/Conv2d_0a_1x1"
  type: "ConvolutionData"
  bottom: "block8_7/eltwise"
  top: "block8_8/branch_1/Conv2d_0a_1x1"
  param {
    lr_mult: 1
    decay_mult: 1
  }
  convolution_param {
    num_output: 192
    bias_term: false
    pad: 0
    kernel_size: 1
    stride: 1
    weight_filler {
      type: "msra"
    }
  }
}
layer {
  name: "block8_8/branch_1/Conv2d_0a_1x1/bn"
  type: "BNData"
  bottom: "block8_8/branch_1/Conv2d_0a_1x1"
  top: "block8_8/branch_1/Conv2d_0a_1x1/bn"
  param {
    lr_mult: 1
    decay_mult: 0
  }
  param {
    lr_mult: 1
    decay_mult: 0
  }
  param {
    lr_mult: 0
    decay_mult: 0
  }
  param {
    lr_mult: 0
    decay_mult: 0
  }
  bn_param {
    scale_filler {
      type: "constant"
      value: 1
    }
    shift_filler {
      type: "constant"
      value: 0
    }
    decay: 0.05
    moving_average: true
  }
}
layer {
  name: "block8_8/branch_1/Conv2d_0a_1x1/bn/relu"
  type: "ReLU"
  bottom: "block8_8/branch_1/Conv2d_0a_1x1/bn"
  top: "block8_8/branch_1/Conv2d_0a_1x1/bn"
}
layer {
  name: "block8_8/branch_1/Conv2d_0b_1x3"
  type: "ConvolutionData"
  bottom: "block8_8/branch_1/Conv2d_0a_1x1/bn"
  top: "block8_8/branch_1/Conv2d_0b_1x3"
  param {
    lr_mult: 1
    decay_mult: 1
  }
  convolution_param {
    num_output: 224
    bias_term: false
    stride: 1
    weight_filler {
      type: "msra"
    }
    pad_h: 0
    pad_w: 1
    kernel_h: 1
    kernel_w: 3
  }
}
layer {
  name: "block8_8/branch_1/Conv2d_0b_1x3/bn"
  type: "BNData"
  bottom: "block8_8/branch_1/Conv2d_0b_1x3"
  top: "block8_8/branch_1/Conv2d_0b_1x3/bn"
  param {
    lr_mult: 1
    decay_mult: 0
  }
  param {
    lr_mult: 1
    decay_mult: 0
  }
  param {
    lr_mult: 0
    decay_mult: 0
  }
  param {
    lr_mult: 0
    decay_mult: 0
  }
  bn_param {
    scale_filler {
      type: "constant"
      value: 1
    }
    shift_filler {
      type: "constant"
      value: 0
    }
    decay: 0.05
    moving_average: true
  }
}
layer {
  name: "block8_8/branch_1/Conv2d_0b_1x3/bn/relu"
  type: "ReLU"
  bottom: "block8_8/branch_1/Conv2d_0b_1x3/bn"
  top: "block8_8/branch_1/Conv2d_0b_1x3/bn"
}
layer {
  name: "block8_8/branch_1/Conv2d_0c_3x1"
  type: "ConvolutionData"
  bottom: "block8_8/branch_1/Conv2d_0b_1x3/bn"
  top: "block8_8/branch_1/Conv2d_0c_3x1"
  param {
    lr_mult: 1
    decay_mult: 1
  }
  convolution_param {
    num_output: 256
    bias_term: false
    stride: 1
    weight_filler {
      type: "msra"
    }
    pad_h: 1
    pad_w: 0
    kernel_h: 3
    kernel_w: 1
  }
}
layer {
  name: "block8_8/branch_1/Conv2d_0c_3x1/bn"
  type: "BNData"
  bottom: "block8_8/branch_1/Conv2d_0c_3x1"
  top: "block8_8/branch_1/Conv2d_0c_3x1/bn"
  param {
    lr_mult: 1
    decay_mult: 0
  }
  param {
    lr_mult: 1
    decay_mult: 0
  }
  param {
    lr_mult: 0
    decay_mult: 0
  }
  param {
    lr_mult: 0
    decay_mult: 0
  }
  bn_param {
    scale_filler {
      type: "constant"
      value: 1
    }
    shift_filler {
      type: "constant"
      value: 0
    }
    decay: 0.05
    moving_average: true
  }
}
layer {
  name: "block8_8/branch_1/Conv2d_0c_3x1/bn/relu"
  type: "ReLU"
  bottom: "block8_8/branch_1/Conv2d_0c_3x1/bn"
  top: "block8_8/branch_1/Conv2d_0c_3x1/bn"
}
layer {
  name: "block8_8/concat"
  type: "Concat"
  bottom: "block8_8/branch_0/Conv2d_1x1/bn"
  bottom: "block8_8/branch_1/Conv2d_0c_3x1/bn"
  top: "block8_8/concat"
  concat_param {
    axis: 1
  }
}
layer {
  name: "block8_8/concat/Conv2d_1x1"
  type: "ConvolutionData"
  bottom: "block8_8/concat"
  top: "block8_8/concat/Conv2d_1x1"
  param {
    lr_mult: 1
    decay_mult: 1
  }
  param {
    lr_mult: 2
    decay_mult: 0
  }
  convolution_param {
    num_output: 2080
    bias_term: true
    pad: 0
    kernel_size: 1
    stride: 1
    weight_filler {
      type: "msra"
    }
    bias_filler {
      type: "constant"
      value: 0.2
    }
  }
}
layer {
  name: "block8_8/eltwise"
  type: "Eltwise"
  bottom: "block8_7/eltwise"
  bottom: "block8_8/concat/Conv2d_1x1"
  top: "block8_8/eltwise"
  eltwise_param {
    operation: SUM
    coeff: 1
    coeff: 0.2
  }
}
layer {
  name: "block8_8/eltwise/relu"
  type: "ReLU"
  bottom: "block8_8/eltwise"
  top: "block8_8/eltwise"
}
layer {
  name: "block8_9/branch_0/Conv2d_1x1"
  type: "ConvolutionData"
  bottom: "block8_8/eltwise"
  top: "block8_9/branch_0/Conv2d_1x1"
  param {
    lr_mult: 1
    decay_mult: 1
  }
  convolution_param {
    num_output: 192
    bias_term: false
    pad: 0
    kernel_size: 1
    stride: 1
    weight_filler {
      type: "msra"
    }
  }
}
layer {
  name: "block8_9/branch_0/Conv2d_1x1/bn"
  type: "BNData"
  bottom: "block8_9/branch_0/Conv2d_1x1"
  top: "block8_9/branch_0/Conv2d_1x1/bn"
  param {
    lr_mult: 1
    decay_mult: 0
  }
  param {
    lr_mult: 1
    decay_mult: 0
  }
  param {
    lr_mult: 0
    decay_mult: 0
  }
  param {
    lr_mult: 0
    decay_mult: 0
  }
  bn_param {
    scale_filler {
      type: "constant"
      value: 1
    }
    shift_filler {
      type: "constant"
      value: 0
    }
    decay: 0.05
    moving_average: true
  }
}
layer {
  name: "block8_9/branch_0/Conv2d_1x1/bn/relu"
  type: "ReLU"
  bottom: "block8_9/branch_0/Conv2d_1x1/bn"
  top: "block8_9/branch_0/Conv2d_1x1/bn"
}
layer {
  name: "block8_9/branch_1/Conv2d_0a_1x1"
  type: "ConvolutionData"
  bottom: "block8_8/eltwise"
  top: "block8_9/branch_1/Conv2d_0a_1x1"
  param {
    lr_mult: 1
    decay_mult: 1
  }
  convolution_param {
    num_output: 192
    bias_term: false
    pad: 0
    kernel_size: 1
    stride: 1
    weight_filler {
      type: "msra"
    }
  }
}
layer {
  name: "block8_9/branch_1/Conv2d_0a_1x1/bn"
  type: "BNData"
  bottom: "block8_9/branch_1/Conv2d_0a_1x1"
  top: "block8_9/branch_1/Conv2d_0a_1x1/bn"
  param {
    lr_mult: 1
    decay_mult: 0
  }
  param {
    lr_mult: 1
    decay_mult: 0
  }
  param {
    lr_mult: 0
    decay_mult: 0
  }
  param {
    lr_mult: 0
    decay_mult: 0
  }
  bn_param {
    scale_filler {
      type: "constant"
      value: 1
    }
    shift_filler {
      type: "constant"
      value: 0
    }
    decay: 0.05
    moving_average: true
  }
}
layer {
  name: "block8_9/branch_1/Conv2d_0a_1x1/bn/relu"
  type: "ReLU"
  bottom: "block8_9/branch_1/Conv2d_0a_1x1/bn"
  top: "block8_9/branch_1/Conv2d_0a_1x1/bn"
}
layer {
  name: "block8_9/branch_1/Conv2d_0b_1x3"
  type: "ConvolutionData"
  bottom: "block8_9/branch_1/Conv2d_0a_1x1/bn"
  top: "block8_9/branch_1/Conv2d_0b_1x3"
  param {
    lr_mult: 1
    decay_mult: 1
  }
  convolution_param {
    num_output: 224
    bias_term: false
    stride: 1
    weight_filler {
      type: "msra"
    }
    pad_h: 0
    pad_w: 1
    kernel_h: 1
    kernel_w: 3
  }
}
layer {
  name: "block8_9/branch_1/Conv2d_0b_1x3/bn"
  type: "BNData"
  bottom: "block8_9/branch_1/Conv2d_0b_1x3"
  top: "block8_9/branch_1/Conv2d_0b_1x3/bn"
  param {
    lr_mult: 1
    decay_mult: 0
  }
  param {
    lr_mult: 1
    decay_mult: 0
  }
  param {
    lr_mult: 0
    decay_mult: 0
  }
  param {
    lr_mult: 0
    decay_mult: 0
  }
  bn_param {
    scale_filler {
      type: "constant"
      value: 1
    }
    shift_filler {
      type: "constant"
      value: 0
    }
    decay: 0.05
    moving_average: true
  }
}
layer {
  name: "block8_9/branch_1/Conv2d_0b_1x3/bn/relu"
  type: "ReLU"
  bottom: "block8_9/branch_1/Conv2d_0b_1x3/bn"
  top: "block8_9/branch_1/Conv2d_0b_1x3/bn"
}
layer {
  name: "block8_9/branch_1/Conv2d_0c_3x1"
  type: "ConvolutionData"
  bottom: "block8_9/branch_1/Conv2d_0b_1x3/bn"
  top: "block8_9/branch_1/Conv2d_0c_3x1"
  param {
    lr_mult: 1
    decay_mult: 1
  }
  convolution_param {
    num_output: 256
    bias_term: false
    stride: 1
    weight_filler {
      type: "msra"
    }
    pad_h: 1
    pad_w: 0
    kernel_h: 3
    kernel_w: 1
  }
}
layer {
  name: "block8_9/branch_1/Conv2d_0c_3x1/bn"
  type: "BNData"
  bottom: "block8_9/branch_1/Conv2d_0c_3x1"
  top: "block8_9/branch_1/Conv2d_0c_3x1/bn"
  param {
    lr_mult: 1
    decay_mult: 0
  }
  param {
    lr_mult: 1
    decay_mult: 0
  }
  param {
    lr_mult: 0
    decay_mult: 0
  }
  param {
    lr_mult: 0
    decay_mult: 0
  }
  bn_param {
    scale_filler {
      type: "constant"
      value: 1
    }
    shift_filler {
      type: "constant"
      value: 0
    }
    decay: 0.05
    moving_average: true
  }
}
layer {
  name: "block8_9/branch_1/Conv2d_0c_3x1/bn/relu"
  type: "ReLU"
  bottom: "block8_9/branch_1/Conv2d_0c_3x1/bn"
  top: "block8_9/branch_1/Conv2d_0c_3x1/bn"
}
layer {
  name: "block8_9/concat"
  type: "Concat"
  bottom: "block8_9/branch_0/Conv2d_1x1/bn"
  bottom: "block8_9/branch_1/Conv2d_0c_3x1/bn"
  top: "block8_9/concat"
  concat_param {
    axis: 1
  }
}
layer {
  name: "block8_9/concat/Conv2d_1x1"
  type: "ConvolutionData"
  bottom: "block8_9/concat"
  top: "block8_9/concat/Conv2d_1x1"
  param {
    lr_mult: 1
    decay_mult: 1
  }
  param {
    lr_mult: 2
    decay_mult: 0
  }
  convolution_param {
    num_output: 2080
    bias_term: true
    pad: 0
    kernel_size: 1
    stride: 1
    weight_filler {
      type: "msra"
    }
    bias_filler {
      type: "constant"
      value: 0.2
    }
  }
}
layer {
  name: "block8_9/eltwise"
  type: "Eltwise"
  bottom: "block8_8/eltwise"
  bottom: "block8_9/concat/Conv2d_1x1"
  top: "block8_9/eltwise"
  eltwise_param {
    operation: SUM
    coeff: 1
    coeff: 0.2
  }
}
layer {
  name: "Conv2d_7b_1x1"
  type: "ConvolutionData"
  bottom: "block8_9/eltwise"
  top: "Conv2d_7b_1x1"
  param {
    lr_mult: 1
    decay_mult: 1
  }
  convolution_param {
    num_output: 1536
    bias_term: false
    pad: 0
    kernel_size: 1
    stride: 1
    weight_filler {
      type: "msra"
    }
  }
}
layer {
  name: "Conv2d_7b_1x1/bn"
  type: "BNData"
  bottom: "Conv2d_7b_1x1"
  top: "Conv2d_7b_1x1/bn"
  param {
    lr_mult: 1
    decay_mult: 0
  }
  param {
    lr_mult: 1
    decay_mult: 0
  }
  param {
    lr_mult: 0
    decay_mult: 0
  }
  param {
    lr_mult: 0
    decay_mult: 0
  }
  bn_param {
    scale_filler {
      type: "constant"
      value: 1
    }
    shift_filler {
      type: "constant"
      value: 0
    }
    decay: 0.05
    moving_average: true
  }
}
layer {
  name: "Conv2d_7b_1x1/bn/relu"
  type: "ReLU"
  bottom: "Conv2d_7b_1x1/bn"
  top: "Conv2d_7b_1x1/bn"
}
layer {
  name: "AvgPool_global"
  type: "Pooling"
  bottom: "Conv2d_7b_1x1/bn"
  top: "AvgPool_global"
  pooling_param {
    pool: AVE
    global_pooling: true
  }
}
layer {
  name: "Dropout"
  type: "Dropout"
  bottom: "AvgPool_global"
  top: "Dropout"
  dropout_param {
    dropout_ratio: 0.2
  }
}

layer {
   name: "gather1"
   type: "Gather"
   bottom: "Dropout"
   top: "gather1"
}

layer {
  name: "fc"
  type: "InnerProductData"
  bottom: "gather1"
  top: "fc"
  param {
    lr_mult: 1
    decay_mult: 1
  }
  param {
    lr_mult: 2
    decay_mult: 0
  }
  inner_product_param {
    num_output: 128
    weight_filler {
      type: "msra"
    }
    bias_filler {
      type: "constant"
      value: 0
    }
  }
}

layer{
	name: "loss"
	type: "SoftmaxWithLossData"
	bottom: "fc"
	bottom: "label_g"
	top: "loss"
}

layer{
	name: "accuracy"
	type: "Accuracy"
	bottom: "fc"
	bottom: "label_g"
	top: "accuracy"
	include {
       phase: TEST
    }
}
